checkpoint_critic-5.pth (torch_old, 49966 bytes, 9 tensors)

fcs1.weight f4 [128, 24]
00000000: eef4 303e 1ff9 52bf ffed 123d 1046 7ebd
00000010: 0ec6 0dbd f0a6 d33e cbc9 dc3c 99ea 69be
00000020: 3c39 533f 7765 3abf ebc7 8c3d 5e7d f93e
00000030: f35b 943e 7bbe 613f 5324 9dbd f711 c63e
00000040: 2296 323f 7c58 e3be 03b5 74bd 268a ec3e
00000050: e110 b73e e3e7 4f3f d091 d3bd 401b e33e
00000060: b253 743d f689 ec3e 124a 23bd 352d 123f
00000070: c2a2 143f 361a abbe 289d a6bb cff0 1d3f
00000080: b125 853d 3795 df3e e666 3abd 14ed 8b3e
00000090: 16a4 4ebd c2f1 a5be 2c68 45bd d69a 8f3e
000000a0: b6af f8ba 191a d43e 7186 3cbd 2d20 03bf
000000b0: 2a06 a2bd ed0f c2bf 5f5f d7bc 4c98 b9be
000000c0: 88b3 28bc 5b1d 47be 84a0 5bbc c9ef 023d
000000d0: 47a4 42be d454 57bf 7401 853c ab25 09bd
000000e0: 7b68 f1bc a49b 97bd 1638 973d 8c2e b0bb
000000f0: 9705 66bd a292 61bf aa5b 94bd d83b 40bc
00000100: f4f2 da3c 3e01 7c3e 543c 29bd d7b3 aebc
00000110: 6a6c 8e3d 7434 f23f 40a8 233d 0072 a9bb
00000120: b1fb 8ebd f196 1b3e a1ea 3c3d 61ac 163e
00000130: 676a a83d 7690 3bbe 616d 48bd 1743 493d
00000140: 9442 e03d b360 0e3f 7030 083d 7e67 903e
00000150: 7cd4 4fbe 44fb 923e 8e9e 1abd cc9b b73e
00000160: a6ee 3fbd c602 4c3f e71b 2cbd 5b00 36bc
00000170: 6dae 5cbf d804 363f d71f 2c3d d971 a5bd
00000180: efb5 3d3f fcc5 c9bc 6433 29bb 0d8c 64bc
00000190: 1b59 c93e 7f94 61bf e33b cb3c ed0a 1fbb
000001a0: 69ce fa3e e1e2 1f3e d30e 5cbd 1697 2abc
000001b0: 48e4 9d3e eda1 30bf 8366 d5bd 3124 9a3c
000001c0: e84a f93e f078 8b3d 133b dfbd 2cf9 5bbd
000001d0: 742a f13e 1173 47bf 5402 10be ecf6 13be
000001e0: cf8d 11bd 6545 c3be 99c9 863b 2ace 8fbc
000001f0: 22af 333e aa97 33bf 1bb3 693b fdd9 85bd
00000200: 5833 0c3d 87dc 4bbd 6422 19b9 4c78 baba
00000210: de04 5dbd af13 403c 58cf 9639 2439 94bd
00000220: 9890 62bd 01ee 8dbe d516 edba 841a 0ebe
00000230: 5d64 cfbe 9db1 df3f b48e 1cbc afc8 79bd
00000240: a7ac 043e 7e2d 183f f48d 713a 747d 1dbd
00000250: d052 40be abd9 003f b7b9 e0bc e872 d93d
00000260: 0676 273e 24ae 3f3f 6797 2cbe 2533 e83e
00000270: 36a5 893e 0608 ed3e 1961 eebd 4e2f 043f
00000280: e445 a2be bff8 263f d156 58bc f5db cc3e
00000290: 2e61 4d3f 9015 053f 7f8c 873d edc4 a23e
000002a0: ca7e 433e 4026 94be eb0e 1d3c 35ff 1f3d
000002b0: 53fe 7f3d e67a 88bf 8ea4 8e3b b442 2e3e
000002c0: 05ad a63e a894 0cbf 92c1 3b3d 085f 7c3e
000002d0: 4c73 89be 53d2 90bf 2606 25bd 37ad 283e
000002e0: c833 623f 0259 febe 0118 67bc 797d 2d3e
000002f0: f95f ba3a 4ba9 5abf a348 58bb bbd9 033e
00000300: 5126 173e b02b f0be 4560 1ebd 8fe0 e0bd
00000310: 6007 80be 0732 773f 970d 86bc ea38 38bd
00000320: e65c 9a3c a27a 22bf c18b c13c 9e8e c13c
00000330: b039 a4be b5cf 533f 1136 abbc 293a 8a3d
00000340: fa52 45be 8a76 1abf 77ac c7be 9372 473d
00000350: 6431 a9bc c524 bf3e f37c e2be d909 de3d
00000360: c1eb 0a3f 6b0e 10bf d078 1e3d 0eca f0bd
00000370: 907d 3c3d 6349 893e 5d93 c13c 3c48 1d3c
00000380: 2eff 253f caab 42bf 9aaf f53c f9b5 683e
00000390: 5cf0 2ebe 1a94 133f ad0d df3d 5ca2 583e
000003a0: 693f a63e 02ea 11bf b0c8 833c 96d3 583f
000003b0: a310 643d 2d63 cc3c 2fd6 173d ea4f 4e3f
000003c0: f4f6 b3bd 73a0 a93e c887 27be f49e d43d
000003d0: aee3 f63e 5353 733e 3493 e7bd 32bf a33d
000003e0: edb0 8bbd a6e6 d13e c827 c73d a880 873e
000003f0: 1ee3 df3e c1bd aebe 12f3 b03d 13a5 af3e
0.17280933 -0.8241138 0.035871502 -0.062078536 -0.034612708 0.413383 0.026951691 -0.22843398
0.8250921 -0.72811073 0.06874069 0.4872846 0.28976402 0.88181275 -0.07672944 0.3868558
0.69760334 -0.44403446 -0.05974294 0.4619915 0.35755065 0.81213206 -0.10330546 0.44356728
0.05965013 0.46199006 -0.03986556 0.5710023 0.5806085 -0.33418435 -0.0050846525 0.6169557
0.0650133 0.4366853 -0.045508288 0.27329314 -0.050449453 -0.3241101 -0.04819505 0.28047818
-0.0018973264 0.4142616 -0.04602665 -0.5122097 -0.07911332 -1.516111 -0.026290594 -0.36249006
-0.01029671 -0.19444792 -0.013404969 0.03196696 -0.1900798 -0.8411381 0.016236044 -0.03348319
-0.029468765 -0.07402733 0.073837444 -0.0053766426 -0.056157675 -0.8811437 -0.07244046 -0.011733018
0.026727177 0.24609849 -0.0413173 -0.021325989 0.06954272 1.8922257 0.039955378 -0.0051710606
-0.069816 0.15194298 0.046122197 0.14714195 0.0822342 -0.18316826 -0.048932437 0.049136247
0.10950199 0.556163 0.03324932 0.28203958 -0.202959 0.28707325 -0.037748866 0.3586105
-0.046858452 0.7969173 -0.042018797 -0.011108483 -0.8620365 0.7110114 0.042022552 -0.08078355
0.74105734 -0.02463054 -0.0025817985 -0.013949406 0.39325795 -0.8811721 0.02480883 -0.0024267987
0.48985603 0.15613891 -0.053725075 -0.010411998 0.30838227 -0.6899708 -0.10419943 0.018816086
0.4868996 0.06810176 -0.108999394 -0.053704426 0.47102702 -0.7790995 -0.14063388 -0.14449662
-0.03553563 -0.3813888 0.004113388 -0.017554361 0.17547277 -0.70153296 0.0035659734 -0.065357186
0.034228653 -0.04977086 -0.00014604029 -0.0014226525 -0.05395972 0.011723443 0.00028764713 -0.07237461
-0.055313677 -0.27720645 -0.001808847 -0.13877302 -0.4050626 1.7476078 -0.009555507 -0.060982402
0.12956487 0.59444416 0.0009214573 -0.03844972 -0.1878159 0.50332135 -0.027432306 0.1061762
0.16353616 0.7487509 -0.1685463 0.4535152 0.26883858 0.46295184 -0.11639614 0.5163468
-0.31693947 0.65223306 -0.013204292 0.40011564 0.8022641 0.51986027 0.066185944 0.31790867
0.19091335 -0.28935432 0.009586076 0.039061744 0.0624984 -1.0662506 0.0043531125 0.17017633
0.32553878 -0.5491433 0.0458389 0.24645627 -0.26845777 -1.1314186 -0.040289067 0.16472326
0.8836026 -0.49677283 -0.014104844 0.16942395 0.0014219276 -0.8541457 -0.003300228 0.12876026
0.1476071 -0.4690833 -0.03866603 -0.10980331 -0.25005627 0.9656071 -0.016363902 -0.044976152
0.018843126 -0.6346837 0.02362621 0.023627575 -0.32075262 0.8273881 -0.020899804 0.067493744
-0.19269934 -0.60337126 -0.38998768 0.04869325 -0.020653434 0.3733274 -0.44235954 0.10841722
0.5426598 -0.56272 0.038689435 -0.11757289 0.046018183 0.26813802 0.023629839 0.009599742
0.648425 -0.7604338 0.02999096 0.22725667 -0.17083877 0.5764786 0.1089128 0.21155685
0.32470253 -0.5699769 0.016086906 0.84697855 0.05567993 0.024949634 0.037069496 0.8059069
-0.08787337 0.33130226 -0.1636039 0.103818804 0.4822058 0.23762254 -0.11307374 0.07995452
-0.06820855 0.40996283 0.097243845 0.26465344 0.43727964 -0.34129146 0.08640112 0.3430563

fcs1.bias f4 [128]
00000000: 174e 52bd 048f 963c c6d2 5fbd fbaf 4cbe
00000010: 812a adbc 79f0 cb3d 2a89 c2bc 1fd8 cdbd
00000020: 940d d43b 5994 183d 2e3c 69bd 4f19 22be
00000030: 962a e0bd 1341 08bd f390 963d 2aef 393e
00000040: d5e1 773b bcaf 953d ce93 f03d 924e b6bd
00000050: 72e6 8abd f5a4 0a3e efb0 153e 121a 463d
00000060: 1883 21be 6748 ed3d 48c0 2cbe eff0 d03d
00000070: 4226 c63c c20d 873d 38be 4bbe bdf9 92bd
00000080: c188 b13d bfe1 203e e362 6fbd a264 3a3e
00000090: 5790 3abd 8d25 fcbd c7fd b4bd 44a2 503c
000000a0: f5a0 14bd 4b5d ca3d 005b e7bd a4c9 6dbd
000000b0: ff3c 4fbe 999e 2a3e 6252 1dbd f4c7 24be
000000c0: e87b 21bc 7a6b c2b9 e439 683d e73c b7bc
000000d0: 6e7f 033e 443f 90bd c2e6 79bd 3791 46bd
000000e0: 102d 153d 4c79 273e ad76 1abc eed8 203e
000000f0: c72e 243e c0a3 d9bd c0b8 8fbc 3758 c5bd
00000100: 3be7 ad3d a7f8 92bd 8bff 7e3d 8e54 483c
00000110: 523a 09be 2386 0cbe 6126 4cbe bddd e9bd
00000120: 8192 693d 70ac 4b3c a442 1d3e 3dcf 37be
00000130: fe95 c3bb 5c67 3bbe de9e 943a f54c 983d
00000140: d982 3bbe b898 383e 25d3 81bd 3d1e 393e
00000150: 3459 0cbd 282b ed3d 4906 3e3e 0f3d 98bd
00000160: 7339 4bbd df46 db3d fff3 32be c67d f73d
00000170: 2f4e 03be 3923 423e 4bfc 08be f7ff abbd
00000180: 16f8 1b3e ef07 b6bd 9027 333e c8cf 0f3e
00000190: 3b0f 3f3e c8a2 4abe 338f 153b bd86 89bd
000001a0: 2f26 473d cfd2 1dbe 2f6b ab3d 111c 1ebc
000001b0: b09c c5bd b201 3cbe f6aa da3d 204b 97bd
000001c0: c947 1a3e aadb 143d b500 7e3d 059b fdbc
000001d0: 8c86 e7bc 0407 8ebd ce00 35be 6c69 033e
000001e0: 41a2 03be 8ba5 f33d 731a 8dbd 1af2 023e
000001f0: a822 333e 1fb1 ffbd c998 2c3e 89b7 a13b
-0.051344004 0.018378742 -0.05464437 -0.19989006 -0.021138432 0.09957976 -0.023747046 -0.100509875
0.006471345 0.03725085 -0.056942157 -0.15829967 -0.109456226 -0.033265185 0.073518656 0.1815764
0.0037823815 0.07308909 0.117469415 -0.08901705 -0.06782235 0.13539489 0.14618276 0.048364706
-0.15772665 0.11586075 -0.16870224 0.102022044 0.024188165 0.06594421 -0.19896781 -0.0717654
0.08668662 0.15711115 -0.058443915 0.18202451 -0.04554781 -0.1231185 -0.08837467 0.012734
-0.036286313 0.098810755 -0.11296654 -0.058053628 -0.20238112 0.16662063 -0.038408644 -0.16091901
-0.009856202 -0.0003708264 0.056695834 -0.022367908 0.1284158 -0.07043317 -0.061011083 -0.04847833
0.036419928 0.16354865 -0.009427709 0.15707752 0.16033469 -0.10626936 -0.01754415 -0.09635966
0.08491369 -0.07176333 0.062255424 0.012227191 -0.13401154 -0.13723044 -0.19936515 -0.11419246
0.057024483 0.012431249 0.15357453 -0.17950149 -0.005968808 -0.18301147 0.001133885 0.074365534
-0.18311633 0.18027008 -0.06339101 0.18077941 -0.03426476 0.11580497 0.18557085 -0.07433521
-0.049615335 0.10706877 -0.1747589 0.12084536 -0.12822793 0.18958749 -0.13377492 -0.08398431
0.15231356 -0.08888232 0.1749556 0.14044106 0.18658154 -0.19788659 0.002282095 -0.067151524
0.0486204 -0.15412448 0.08370053 -0.009650246 -0.096490264 -0.18360022 0.106771395 -0.07387376
0.15066446 0.0363423 0.062012393 -0.030957708 -0.0282624 -0.06934932 -0.17676088 0.12833184
-0.12854864 0.11896809 -0.068898104 0.12787667 0.17493689 -0.12484955 0.16855158 0.004935209

bn1.weight f4 [128]
00000000: e140 8a3e 03bb b73e b5ab 7e3f 9390 213f
00000010: 3299 753e bdac 243f 4e68 9b3e bac8 ed3e
00000020: d454 ab3e 2dbf 293e c4cb c53e 69e7 d03e
00000030: 0298 b93e c3cb e23e a2c6 4a3f 53cc 3e3f
00000040: 5957 1a3f ba01 e13e 8d24 be3e 31a9 c83e
00000050: b4bd 193f df43 be3e 3658 503e 8780 2b3e
00000060: 323a d53e b151 d33e e74c 493e a51f 1f3f
00000070: fe52 893e d669 e23e 65fd a03e 8bae 103f
00000080: 7848 833e f495 9c3e dc45 bc3e 683c cb3e
00000090: 096f c63e c57c 4a3e 435b ca3e 695b 183f
000000a0: c1d5 a73e 8b40 b83e 497f 183e 9298 843e
000000b0: 80bb 4a3f 67c6 833e 9b61 153e dab4 953e
000000c0: 496b 8b3e 26e1 0d3f 71db fd3e 470b 8e3e
000000d0: 5049 3f3f f697 a43e 30cd 1c3f 81d1 993e
000000e0: e62b e43e d96a 9d3e 44f5 dc3e 60de 003f
000000f0: 09c4 183f 8329 8f3e eeb4 9d3e 05e7 833e
00000100: 5145 9e3e 6c45 0c3e 23e2 bd3e 30be e73e
00000110: 9beb 913e bafa b13e cdd8 c43e 8621 ab3e
00000120: 35ed 163e 5ad9 993e 6d9e 363f c6f1 853e
00000130: d3e3 763e 9e6e 0d3f f09c 1b3f 9507 2d3e
00000140: cf54 b13e 0a55 993e 8654 3f3f dbff 913f
00000150: 3b16 ba3e e135 b23e d436 233f da65 9f3e
00000160: ace6 c93e 920d ac3e 6a65 0c3e 244a 673e
00000170: 2af2 1e3f c76d 573e d8f5 f53d 27c9 943e
00000180: 146f 593e d64a c83e b952 803e ac41 913e
00000190: 14b4 a23e f778 ca3e 5aff 9b3e 6f42 a03e
000001a0: cd5b 803e 7c56 1a3e 5583 963e e901 f53e
000001b0: fd5f 993e cb2a 023f f819 e63e c881 663e
000001c0: 0a78 cb3e af0e 2c3e e0a0 0640 cf8f 893e
000001d0: f936 d73e 34c5 043f 57fd 0c3f b7dc af3e
000001e0: 5cd1 003f ea86 dd3e 4f0f a43e 5555 473e
000001f0: b265 823e 2f14 053f 3bce a43e 0f91 c83e
0.27002624 0.35884866 0.99480754 0.6311123 0.2398422 0.6432608 0.30353016 0.46442205
0.33463156 0.16576834 0.38632023 0.40801552 0.36248785 0.44296083 0.7920934 0.74530524
0.6028953 0.4394663 0.3713726 0.39191583 0.6005509 0.37161157 0.2034615 0.16748248
0.41645962 0.41273263 0.19658242 0.6215766 0.2682113 0.4422137 0.31443325 0.5651633
0.25641227 0.30583155 0.36772048 0.39694524 0.38756588 0.19774158 0.39522752 0.5951448
0.3278027 0.35986742 0.14892305 0.25897652 0.7919235 0.25737306 0.14588015 0.2923954
0.2723029 0.55421674 0.49581483 0.2774298 0.7472124 0.32147187 0.6125059 0.3004265
0.44564742 0.3074558 0.43155873 0.5033932 0.59674126 0.27961358 0.308021 0.2576219
0.3091226 0.13698357 0.3708659 0.4526229 0.28500065 0.34761602 0.38446656 0.33424014
0.14738925 0.3004864 0.7133549 0.2616102 0.24110346 0.55246913 0.6078634 0.16897424
0.34635016 0.29947692 0.7473835 1.1406206 0.36345086 0.3480673 0.63755536 0.31132394
0.394338 0.33604103 0.13710561 0.22586876 0.62088263 0.2103797 0.120097816 0.29059717
0.21233779 0.39119595 0.25063112 0.28370416 0.31778014 0.39545414 0.30468255 0.31300685
0.25070038 0.15072054 0.29397073 0.4785302 0.29956046 0.50846547 0.44941688 0.22510445
0.3974002 0.16802476 2.103569 0.2686753 0.42034128 0.5186341 0.55074066 0.3434808
0.5031946 0.43266994 0.3204293 0.19466145 0.25468212 0.5198392 0.3218859 0.3917317

bn1.bias f4 [128]
00000000: 4691 8bbe 4756 9bbe 763d b7be 64d0 07bf
00000010: 758e 84be 8a91 52be 4178 79be 2975 0abf
00000020: 02e1 b4be 8190 03be 75a2 babd 829d fcbe
00000030: bea2 a6be 306e c63d 6674 5cbf 6647 5bbf
00000040: d3ec 843c 4ac9 c9be 7251 013e 65ae c4be
00000050: 99ee 8ebe 731e cfbe 288c ad3d 914f f6bd
00000060: 9224 0bbf ceab a3be fa66 3f3d 65fd 4cbf
00000070: bffd 67bd f07f bfbe 9177 d4be 98b7 ebbe
00000080: ecf8 1b3d 8b33 a6be 7c0d 03bf 9683 debe
00000090: 602e b0be da72 9cbd 90c7 9cbe 5b24 abbe
000000a0: c28b c7be 1c33 d6be 35ce f1bc 5da4 37be
000000b0: 9cb2 43be 2863 1cbe 3e9c 0b3d 0cf4 bbba
000000c0: 4f6b d3bd a230 e8bc e798 4cbf 67d0 963e
000000d0: e690 17be 3794 36be 195e 50be 1489 61be
000000e0: 9a6f ecbe 2ab3 31be 3e39 c6bd 5e03 55bf
000000f0: 59b5 1cbf 4730 6abe 1f85 f2bd 90d3 e7bd
00000100: 3a44 b4be fc5c bcbc 497a e8be aefd 5ebe
00000110: 67de 1fbe 1966 1fbe b462 09bf cac0 6dbc
00000120: d926 09be 1eab f5be fe6c 19bf 791f 16be
00000130: 0ad5 87be 4db7 13bf a3fd 103e 81fb d6bc
00000140: 90ce b1be ae79 87be cab6 69bf 94ed 8ebe
00000150: e634 1dbf 75e7 b6be 7191 10bf d44b 2bbe
00000160: dcdf b1be f2bc 3ebe 657c fe3b eee5 aa3d
00000170: 4f15 32bf f50d d8bc b18d dfbd 6991 c1bd
00000180: ada9 8ebd f523 bfbe 3926 a2be efc3 90be
00000190: df0b 39bd 7424 96be 4c52 53be c977 a93d
000001a0: 7059 13be 3d43 40bd 6586 3bbe 798c 45be
000001b0: 22b1 c2bc feb6 0cbf 2fd8 a4be aca0 8cbe
000001c0: 03bb 9a3e 1fee 93bc bafd b83d 69e7 83be
000001d0: 0786 94be 803c 14be 8ac7 a9be ecaf 60be
000001e0: cac2 52be aaf5 ecbe 7265 38bf 4172 75be
000001f0: 765f 7bbe 71ce a5be 8157 08bf b387 11bf
-0.27259272 -0.30339262 -0.35789078 -0.53052354 -0.25889936 -0.20563331 -0.2436228 -0.5408502
-0.35327917 -0.12848093 -0.091130175 -0.4933892 -0.32546037 0.09688985 -0.8611511 -0.8565582
0.016226208 -0.39411384 0.12628725 -0.38414302 -0.2791641 -0.40452918 0.08473998 -0.12026895
-0.54352677 -0.31967014 0.046729065 -0.8007415 -0.056638476 -0.37402296 -0.41497472 -0.46038508
0.038079187 -0.324612 -0.5119245 -0.43459767 -0.3441038 -0.07639094 -0.30621004 -0.33426175
-0.38973814 -0.41835868 -0.029517272 -0.17933793 -0.19111103 -0.152722 0.03408455 -0.0014339699
-0.10323202 -0.028343502 -0.7992081 0.29455873 -0.14801368 -0.17829977 -0.20348395 -0.22024947
-0.46178895 -0.17353502 -0.09678887 -0.8320826 -0.61214215 -0.22869979 -0.11841797 -0.11319649
-0.35208303 -0.022993557 -0.45405796 -0.21776459 -0.15612184 -0.15566291 -0.53666234 -0.0145112965
-0.13393725 -0.47982115 -0.59931934 -0.14660443 -0.26529723 -0.5770157 0.14159255 -0.026242973
-0.34727907 -0.26460022 -0.9129454 -0.27915633 -0.6140884 -0.35723463 -0.56471926 -0.16728145
-0.34741104 -0.18626764 0.007766294 0.08344637 -0.69563764 -0.026373843 -0.10915697 -0.09451563
-0.06965957 -0.3733212 -0.31669787 -0.28274485 -0.045177337 -0.29324687 -0.20636863 0.082748
-0.14389586 -0.046939123 -0.18312986 -0.19291867 -0.023766104 -0.54966724 -0.32196185 -0.27466333
0.30220804 -0.01805788 0.090327695 -0.2576249 -0.29008505 -0.14476204 -0.3316005 -0.21942109
-0.20582119 -0.46281177 -0.72029793 -0.23969366 -0.24548134 -0.32384065 -0.5325852 -0.56847686

bn1.running_mean f4 [128]
00000000: 868c 76c0 89e1 05c1 d44c d53e d157 243f
00000010: 0e26 91c1 1021 6140 0d59 c33e d33e 68c1
00000020: c72a 673f 94bd 5dc0 b71f 93be 8c14 3541
00000030: 687a 48c1 71bd 083d 6d96 90c0 f890 86bf
00000040: 10c0 e33f 5227 8c40 edd7 ff3e a2f8 e640
00000050: 1e12 ffbf 4a81 f6c0 c8a6 25bf 6bce 98c0
00000060: 5454 07c0 0d4a bb40 8454 2041 f801 0640
00000070: d2de efbe f697 43c0 4ad8 7fc1 6e1c f7c0
00000080: 9c55 85c0 f288 0441 b751 56c1 763a aac0
00000090: 3bf2 8940 40e7 52c0 c070 3740 4eb9 d6bf
000000a0: b224 7ac0 efb7 b03e 4945 c33f 481f 7fc0
000000b0: 42aa c5be 6353 cdc0 47d1 8f40 f700 ae40
000000c0: 0c8d 5bc0 457d 253f 21da 8a40 bd17 0d40
000000d0: 860e 25bd 74c2 1f41 48fc ac3e e43a 6e40
000000e0: 3d04 fdc0 a1a6 1b41 ade2 273f d6c6 2dc1
000000f0: 2419 c53f a867 fec0 d578 06c0 44cc fabf
00000100: d4d2 ae3f 0ecf d840 aaa0 8fc0 7653 18be
00000110: 55a5 d1c0 f083 353f aa80 d03f 1fed 1b40
00000120: 2597 a840 4022 9bc0 9cbe 853e febc cb40
00000130: 04f1 0640 435d eb40 0426 c3be 9ea7 0141
00000140: f6a9 0f40 ce3e fcc0 bbf5 933f 5921 203f
00000150: 6a33 8d40 b091 3541 3a48 943f 06e4 00bf
00000160: bfc2 0741 c4a7 c540 7c7a 5441 c65a ce40
00000170: a4b0 083f 713b 0e41 df56 19c1 9f67 0a41
00000180: cfb3 8bc0 2627 19c1 5302 fec0 5600 01c1
00000190: 4d7f b8c0 0a5e 773f ddbd d240 79bf e340
000001a0: a074 63c1 a76b 2fc1 7c83 5d41 967e 5840
000001b0: e127 25c0 cf8b 10c1 9d9d 5ebf b6fe a43f
000001c0: 270f 683e df99 f440 feb6 383e 26cf 8e40
000001d0: d301 67bf bac2 9440 3786 7d40 e9d3 7440
000001e0: d1ed 2b3f 7ab0 3741 55cf 30c1 5d30 9a3f
000001f0: beb3 bebf e9ff 9f3f aeff 983f 0c60 88c0
-3.8523269 -8.367562 0.41660178 0.641965 -18.143581 3.517643 0.38153878 -14.515338
0.9029965 -3.464696 -0.28735134 11.317516 -12.529884 0.03338379 -4.5183625 -1.0512991
1.7792988 4.3798 0.49969426 7.2178507 -1.9927404 -7.7032824 -0.64707613 -4.7751975
-2.114522 5.8527894 10.020634 2.0938702 -0.46849686 -3.05615 -15.990305 -7.7222204
-4.1667004 8.283434 -13.39495 -5.3196363 4.310819 -3.2953644 2.8662567 -1.67753
-3.9084897 0.3451533 1.5255519 -3.9862843 -0.3860646 -6.416429 4.4942966 5.437618
-3.4304838 0.6464427 4.339127 2.2045739 -0.040297054 9.984974 0.33786225 3.7223444
-7.9067674 9.728181 0.65580255 -10.861044 1.5398297 -7.9501534 -2.101125 -1.9593587
1.365809 6.775275 -4.4883623 -0.14875588 -6.551432 0.70904446 1.6289265 2.4363477
5.2684503 -4.847931 0.26121986 6.3668203 2.1084604 7.3551345 -0.3811494 8.103422
2.2447486 -7.8826666 1.1559366 0.62550884 4.412526 11.348068 1.1584542 -0.50347936
8.485045 6.176729 13.279903 6.4485807 0.5339453 8.889512 -9.583709 8.650298
-4.3656993 -9.572058 -7.9377837 -8.062582 -5.7655396 0.9662787 6.5856767 7.117123
-14.215973 -10.963782 13.844601 3.3827262 -2.580559 -9.034133 -0.8695925 1.2890232
0.2266203 7.643783 0.18038556 4.4627867 -0.9023716 4.6487703 3.9613168 3.825434
0.67159754 11.480585 -11.050618 1.2046009 -1.4898603 1.2499973 1.1953027 -4.2617245

bn1.running_var f4 [128]
00000000: 9add ee42 8828 5242 a810 7740 eb94 2342
00000010: 1c7b 1443 9e35 2241 1ab3 b642 eb7a 7c42
00000020: 3b33 b743 8276 ef42 a613 4443 2e04 d642
00000030: e2d1 4042 ff87 2d41 b3fa b441 255f 0d41
00000040: ea3b 1644 4f0c af42 2bc4 ac40 d308 aa42
00000050: bb93 ac41 8454 1b43 a7ba be40 4d32 4642
00000060: 4890 1a42 d705 1342 c9f2 8d42 6170 e241
00000070: 660b f241 ec46 5c42 fa79 9842 5d81 5043
00000080: 8181 c342 94fd 1a42 35c1 b441 8c9d e142
00000090: dcb6 9e42 c0d6 1343 4a88 e441 af58 ca40
000000a0: 3091 7042 337b b941 ab05 f442 723a b942
000000b0: 038d 4a40 d56f 4242 b581 3942 b9e8 8742
000000c0: 749f 8342 e1b0 2940 7896 3d42 8c44 8340
000000d0: 4484 cf41 e1d0 5942 ca0b 0040 930e f042
000000e0: 3876 1d42 80b8 db42 1fef 7240 571f 1042
000000f0: a780 9f41 342b 2b42 0d38 b742 5051 0f43
00000100: 4f4b 7542 bedc 6743 b509 be41 1202 8841
00000110: 4ff4 1c42 6403 1a43 035e 9c42 0dce c441
00000120: bdd7 5543 1c33 3442 c7bd 8040 7087 3142
00000130: 2c73 0f43 5a5b 8c42 f275 fb3f 3d98 c142
00000140: 831c 5542 394c 3143 eac4 3241 e904 8940
00000150: 8849 3142 de43 ca43 5a85 a240 a3a8 1c41
00000160: 146f 0043 c6df 9342 211c e742 3591 7341
00000170: 170d 3b41 b4b2 d942 0409 d242 53cd 0f43
00000180: 6e9d e142 3b24 c642 43e2 8d42 2dfc 2743
00000190: 31f6 a042 da2a 2042 0d13 0d43 73b1 bd41
000001a0: bca4 2943 c5a7 af43 be12 0643 1792 bb41
000001b0: 247c 0b42 4b3f bb41 06f4 0143 69a4 4943
000001c0: ab59 6c40 0ee4 8f42 a5ee 4244 b0d2 fe42
000001d0: 2b18 1641 7e2a 4a42 a54a 8742 cd10 f241
000001e0: 72de 5042 9940 6443 1db0 bd42 7ecf 9042
000001f0: 8940 a642 2c2f 0e41 8542 9143 715d 9e41
119.432816 52.53958 3.8603916 40.895428 148.4809 10.13809 91.34981 63.120037
366.40024 119.73146 196.07675 107.00816 48.204964 10.845702 22.622412 8.835729
600.93616 87.52404 5.3989463 85.017235 21.572134 155.33014 5.9602847 49.54912
38.6409 36.755703 70.97419 28.304873 30.255566 55.06926 76.238235 208.50533
97.75294 38.747635 22.59434 112.80771 79.35715 147.83887 28.566547 6.3233256
60.141785 23.185156 122.01107 92.61415 3.1648567 48.60921 46.376667 67.95454
65.81143 2.6514208 47.396942 4.1021175 25.939583 54.453983 2.0007195 120.028465
39.365448 109.86035 3.7958448 36.030605 19.937819 42.79219 91.609474 143.31763
61.323544 231.86227 23.75474 17.00101 39.238583 154.01324 78.18362 24.60061
213.84273 45.04991 4.023166 44.382263 143.44989 70.17842 1.9645369 96.79734
53.277843 177.29774 11.173075 4.2818494 44.321808 404.5302 5.0787783 9.791171
128.4339 73.93706 115.55494 15.222951 11.690696 108.84903 105.01761 143.80205
112.80748 99.07076 70.94192 167.98506 80.48084 40.041847 141.07442 23.711645
169.6435 351.3107 134.07321 23.446333 34.87123 23.405905 129.95322 201.64223
3.692973 71.94542 779.7288 127.4115 9.3809 50.541496 67.64579 30.258204
52.21723 228.25233 94.84397 72.40526 83.126045 8.886517 290.51968 19.795626

fc2.weight f4 [64, 130]
00000000: 8f17 91be 3757 183e 34cf bfbd 313d f93d
00000010: 120f bcbe aeb4 cdbd 1e5d 573d 1828 c4be
00000020: 6de4 903d da07 a53e a5e3 0b3e 7f2e 1bbe
00000030: 02c8 473e 6217 b6be 3cca 2f3d b442 94bf
00000040: 4058 313e f933 02be a63c 663d 8afa 763d
00000050: c65c e53e b33d b7bd b403 50bf 8a29 f9be
00000060: 86a8 04bf da3f b8be cbe2 143e 96fe d4be
00000070: 8d76 973e 1f67 983d 56a6 7bbf f9b0 acbe
00000080: 7414 bfbd 7fce 713e f3c8 09bf c9de dabc
00000090: 1b8f f93d 2ac1 103e 77b9 823e f788 7abf
000000a0: a8c4 833e 2d41 2bbe d737 723e a517 9e3e
000000b0: d353 d2bf 88f9 743e b2ff b93c 3b22 e53d
000000c0: 5c3f d23d 9b2c 483e e6e5 393e 643e 06bd
000000d0: 815d 50bf dab2 b5bc 0c0c 273e 35d7 983d
000000e0: c1ca 07be 482c d6bd a972 ecbd 4c2f 063e
000000f0: 279b 1ebe 4a3c 9abe 2f29 553d 72c7 e43d
00000100: 6423 08bf 94fb abbe cba0 a3bd 2776 cf3c
00000110: a3c2 b73d 75d9 2ebd a036 47bf e559 433d
00000120: da5e 49bd a716 9bbe d0f0 86bc 5b39 083e
00000130: e18c 623e aabd f0be f6c9 153e 0bcf 253e
00000140: ef56 5a3e 3122 c5bd e812 893e 80d2 8bbf
00000150: a31e 5f3e e0ed ecbb ad4f 3ebf 5aa2 03bf
00000160: 9cae 473d cc47 243b 0b35 8b3c 1ac0 223e
00000170: 549f b93b 9f76 00bd d4aa a83c d777 203d
00000180: 69a0 1d3d e707 10be 1d6e 713f 61b8 d9bd
00000190: 248e 1c3e 5d95 663e f920 abbc a088 2dbe
000001a0: 4d44 ac3c 0e14 4e3e 9ace 4d3d 65d4 73bc
000001b0: e7e6 a63e b525 b9be 2b33 8c3e c814 30be
000001c0: d6ef 87be bc2b 1e3d b593 04be 6f0a 84be
000001d0: 0c63 babd 6839 93bc 95ff 913e dce0 1e3e
000001e0: 97ad c33d 5a86 4c3e a36a 9dbe f96f 233e
000001f0: 96e9 1fbe 992b d4be abdc 513e dd1f 18bf
00000200: cdee e6bc 89ed 91bc 441f 6ebf 20c6 333e
00000210: 31be a5bd 9672 c43d f183 ca3e 5226 d7bc
00000220: f08a aa3d f7b0 e5bc d4b0 24be 89e1 993e
00000230: f325 13be 5dc4 c2be 46f6 d03d 5ad7 443e
00000240: 36e3 06be 9092 bf3e b8d7 04be 86cd 94be
00000250: 0cc1 34bf b331 5e3e 962b 99bc ff00 3d3e
00000260: 3e98 9b3e d5af a13e 992b 06be 0211 823d
00000270: ba38 043e 4975 64bf 441e c03e b5fd f33d
00000280: b424 87bc a4a4 a4bf 2609 933d ecc5 38bb
00000290: 342b c03d 9abc 81be 4ccb fc3c 85a9 cebe
000002a0: 4d6c 9bbe 9946 acbf 19f6 45be 073e a03e
000002b0: b97a a0be bd3b 83bc 503d 54bf 4e43 133e
000002c0: c646 03be 03ed 673e 9e02 9bbd 9621 353e
000002d0: d5c3 99be 4638 28be fe54 f6be 23e6 9bbc
000002e0: c45b 263e 4933 03be 664d be3d 196f 093e
000002f0: 5329 16be f9e1 90be 0836 493d a56c 963e
00000300: 1037 2dbd 3662 0c3d bf4e 953d d7ff 22be
00000310: fcf8 ca3d 5942 3b3e aa73 5f3d 445d 0ebe
00000320: 7f33 033f f835 0fbd 72cf 48be 1434 fa3d
00000330: ac00 7a3e cc05 88bd 94f6 acbe 3e1c de3e
00000340: 99aa 41bf a44d a33e 63e0 d8be a1ad d4be
00000350: a84a 10be 82ce 8b3d 81ca b73e 602d ae3d
00000360: 1418 e23e 0275 3d3e e0c5 f4bb 2505 3abe
00000370: fdcb f2be 511c c2be 70f4 36be 32c4 7f3e
00000380: f759 76bd 1e92 063c f389 63bd 6fed 44be
00000390: 7945 91be ecea 2dbe 6bca f33e 83d7 11bf
000003a0: d717 c8be 4a26 103d 9d20 513e 5e8a 4dbe
000003b0: 8384 ea3d 8094 b13d 1d5d 4ebd 5250 1bbd
000003c0: 3df9 593b 5ee7 40be abb0 aa3d f0d4 6fbe
000003d0: 8aa3 bbbf f6ae 233e b4d6 9cbe fbe9 b63e
000003e0: 9be5 0abf a934 75be 3011 9c3e 458a b8be
000003f0: 5a4a 013f c837 a4bc 38a3 0cbd 52bc 873e
-0.28338286 0.1487702 -0.09365693 0.121698745 -0.36730248 -0.100442275 0.052579038 -0.3831184
0.07074819 0.32232553 0.13661058 -0.15154456 0.1950989 -0.35564715 0.042917475 -1.1582856
0.17318821 -0.12715138 0.056210183 0.060297526 0.44797343 -0.08947315 -0.8125565 -0.48664504
-0.51819646 -0.35986215 0.1453964 -0.41600484 0.29582635 0.07441544 -0.98300683 -0.3372877
-0.09330073 0.23613928 -0.5382225 -0.02671756 0.12185498 0.14136186 0.25532123 -0.9786524
0.25735974 -0.16724081 0.23654114 0.30877414 -1.6431831 0.23923314 0.022704933 0.111881696
0.10265991 0.19548266 0.18154106 -0.032774344 -0.81392676 -0.02218001 0.1631319 0.074629225
-0.13260938 -0.10457665 -0.11545307 0.1310398 -0.15488873 -0.30124122 0.05204123 0.11170854
-0.53179 -0.33590376 -0.07989653 0.025324894 0.08972671 -0.042687852 -0.77817726 0.047693152
-0.049162723 -0.3029072 -0.01647225 0.1330313 0.22124054 -0.47019702 0.14627823 0.16192262
0.21322225 -0.09625662 0.26772237 -1.0923615 0.2178903 -0.0072305053 -0.74340326 -0.51419604
0.048750505 0.0025067208 0.016993066 0.15893593 0.0056647453 -0.031363126 0.02058927 0.03917679
0.038483057 -0.14065515 0.94308645 -0.106308706 0.15288597 0.22517915 -0.020889746 -0.1694665
0.021028662 0.20124838 0.05024586 -0.014882182 0.3259804 -0.3616158 0.27382788 -0.17195427
-0.26550168 0.038615927 -0.12946971 -0.2578921 -0.09100923 -0.01797171 0.28515306 0.15515465
0.09554594 0.19973126 -0.3074542 0.15960683 -0.1561645 -0.41439512 0.20494334 -0.5942362
-0.028190041 -0.01781346 -0.9301646 0.17556047 -0.08092917 0.09592168 0.39553788 -0.02626339
0.083272815 -0.028038485 -0.1608308 0.30054882 -0.14369945 -0.38040438 0.10203223 0.19222775
-0.13172612 0.37416506 -0.12972915 -0.29063052 -0.70607066 0.21698646 -0.018697541 0.18457411
0.3038959 0.31579462 -0.13102569 0.063509 0.12912264 -0.8924146 0.3752309 0.11913625
-0.016496994 -1.2862744 0.07179479 -0.0028194143 0.0938324 -0.25339204 0.030858658 -0.40363708
-0.30356064 -1.3459045 -0.1933216 0.31297323 -0.3134363 -0.016019696 -0.82906055 0.14381143
-0.12819967 0.22649007 -0.075688586 0.17688593 -0.3003222 -0.16427717 -0.4811172 -0.019030636
0.16245943 -0.12812532 0.09292106 0.13421287 -0.14664201 -0.28297403 0.049123794 0.29379764
-0.04228884 0.03427335 0.0729041 -0.15917908 0.09910771 0.18287028 0.054553665 -0.13902766
0.5125045 -0.034963578 -0.19610384 0.12216964 0.24414319 -0.06641731 -0.33781874 0.43380922
-0.75650936 0.31895173 -0.42358693 -0.41538718 -0.14090979 0.068264976 0.35896686 0.08504748
0.44158995 0.18501666 -0.0074698776 -0.18166025 -0.47421256 -0.3791223 -0.17866683 0.24977186
-0.06014439 0.008213548 -0.05555148 -0.19231199 -0.28373316 -0.16984147 0.4761537 -0.5696947
-0.39080688 0.035192765 0.20422597 -0.20072314 0.11451056 0.08670902 -0.05038177 -0.037918396
0.003326013 -0.1883826 0.08334478 -0.23421073 -1.4659283 0.15984711 -0.30632555 0.35725388
-0.542566 -0.2394587 0.30481863 -0.3604299 0.50504076 -0.02004613 -0.034335345 0.26510864

fc2.bias f4 [64]
00000000: 3707 e13c ddac 253e b048 36bd d39f aabe
00000010: 79b4 debd 4e4c 66be 30cc 55be 548b 43bd
00000020: 3099 08bd bd0d 66be 23b7 86be 07f7 23be
00000030: f482 16bd c206 0cbc e5a9 ac3d 7943 273e
00000040: f86a a43c c3af c83e 93d9 2dbe 06d1 e1bc
00000050: ee19 31be 9ba9 833e add6 bcbd f4ff 123e
00000060: 2493 993d f8bc 073e 38d9 0cbe b648 2dbe
00000070: c695 193e 5f23 04be 4728 073d 811f d6bb
00000080: 0df0 2abc 99a5 053e a6f2 ec3d 9924 7bbd
00000090: 4949 b93c 9470 34bc f56f d2bc 5185 26bd
000000a0: 9adf a5bd a8c9 ab3e 7c18 36bd 2704 713d
000000b0: b732 afbd 2f2a c03d 5414 b4bd 3153 703e
000000c0: 5077 9f3e 3df6 463d b5d1 8fbe 5b00 173e
000000d0: 80f2 25be 03ef a73e 96a2 a4bd 86f3 a83e
000000e0: 0fcc 043e 076f b53e eb39 f63c 8c28 9dbd
000000f0: 6dad da3c 70c2 1cbe 5198 5bbe ce64 3abe
0.02746926 0.16179223 -0.044502914 -0.3332506 -0.10874266 -0.22490045 -0.20878673 -0.047740296
-0.033349216 -0.22466178 -0.26311597 -0.16012202 -0.03674598 -0.008546533 0.08430842 0.16334333
0.020070538 0.39196596 -0.16977529 -0.02756549 -0.17295048 0.25715336 -0.09220634 0.14355451
0.07498768 0.1325568 -0.13754737 -0.16922268 0.1499854 -0.12904118 0.032997396 -0.0065345173
-0.010433209 0.13051452 0.11569719 -0.0613142 0.022617953 -0.011013169 -0.02568815 -0.040654484
-0.08099289 0.3355229 -0.044456944 0.05884185 -0.08554595 0.09383046 -0.0879294 0.23469235
0.31145716 0.048574675 -0.2808968 0.1474623 -0.16205788 0.3279954 -0.08038823 0.32998294
0.12968467 0.3543627 0.030056914 -0.07673749 0.026694024 -0.15308547 -0.21444823 -0.18202516

fc3.weight f4 [1, 64]
00000000: b511 53bd bfdb 0a3d e5f4 a3be 6485 d4be
00000010: 4bd1 883c 976c 9e3d 715c 863d 4e47 9b3e
00000020: b6f5 7d3d b99b af3e d245 cc3e 4ef9 4b3e
00000030: 278b 943e a834 99be 5540 1f3e 23b5 b5bd
00000040: a1e8 c6bd 5514 4d3d 8b0c 443e 5916 0dbe
00000050: 76c5 0ebe 16a1 343d 2330 1fbe 908d 223d
00000060: 24e5 30be 22d7 103d 65d3 f93b 1e9b 07bf
00000070: 6d51 6f3e d164 cc3e 320e 3e3e c05e 61bd
00000080: 8873 81be 0d86 b23d 7a0d 883d d2e6 3a3e
00000090: 5e03 883d c54b 953e c781 c93d 863c 56bd
000000a0: e59c 2c3e 3840 c93d e9f9 d03d 83cf 513d
000000b0: 4c53 8b3d 3d53 1e3d 5e6c 123f 09f3 823d
000000c0: 102f 71bd 3e38 8fbd 9e64 b8be ce1f 80bd
000000d0: 57f0 813e 5658 00be 0cc1 153e acff e33d
000000e0: f662 6e3d 43c8 373d 3888 ae3d e880 54bd
000000f0: 1749 bc3e 5460 bd3c eecc b03d 7c59 ca3d
-0.05153056 0.033900972 -0.32022777 -0.4150802 0.016701361 0.077355556 0.065606005 0.3032784
0.062001906 0.34298494 0.3989702 0.19919321 0.29012415 -0.29922986 0.15551884 -0.0887244
-0.09712339 0.05006822 0.1914541 -0.13778056 -0.13942513 0.044098936 -0.15545706 0.039685786
-0.1727491 0.035361417 0.007624077 -0.52971065 0.23370905 0.39920667 0.18560103 -0.055022
-0.25283456 0.087169744 0.066431955 0.18252113 0.06641267 0.2915937 0.09839206 -0.052303813
0.16856726 0.09826702 0.102039166 0.05122329 0.06802997 0.0386536 0.57196605 0.063940115
-0.058882773 -0.06993149 -0.36014265 -0.06256066 0.25378677 -0.12533697 0.14624423 0.1113275
0.058199845 0.04486872 0.085220754 -0.051880747 0.36774513 0.023117222 0.08632837 0.09880349
