checkpoint_actor-5.pth (torch_old, 49711 bytes, 10 tensors)

fc1.weight f4 [128, 24]
0	0x3eb0bb83	0.3451806
1	0x3ecc82ca	0.39943534
2	0xbdc2ed3f	-0.09517907
3	0xbb09e3fc	-0.002104043
4	0xbee147e8	-0.44000173
5	0x3e2ae02b	0.16687076
6	0xbc4bdbc5	-0.012442534
7	0xbd8f1984	-0.069872886
8	0x3e928e0f	0.28624007
9	0x3ecd1ed4	0.40062582
10	0x3bad5a3b	0.0052902973
11	0xbda83361	-0.08212925
12	0xbe856b8c	-0.26058614
13	0x3fb6f91b	1.4294771
14	0xbc1fd548	-0.00975544
15	0xbd7e7db6	-0.062131606
16	0x3eab12db	0.33412823
17	0x3ef8d6b2	0.486013
18	0x3e24358a	0.16036049
19	0x3ec47497	0.383702
20	0x3d2f3e9f	0.04278433
21	0x3fe7b03c	1.8100657
22	0x3de1af40	0.110197544
23	0x3e67e8f0	0.22647452
24	0x3eb685c8	0.35648942
25	0x3f4156b0	0.755229
26	0x3d77ac09	0.0604668
27	0x3dec0d5e	0.11525987
28	0xbf35cbbc	-0.71014
29	0xbe38f112	-0.18060711
30	0x3ceb536a	0.028726298
31	0x3e752e05	0.23943336
32	0x3e1584a7	0.14601384
33	0x3f0907c9	0.53527504
34	0xbc90abec	-0.017660104
35	0x3df59e2d	0.1199306
36	0xbf82a1c8	-1.0205622
37	0xbd5a5abe	-0.053309195
38	0x3da47f95	0.08032147
39	0x3cdc2548	0.026873246
40	0xbe214781	-0.15749933
41	0x3f13a3f3	0.5767204
42	0x3e0b416e	0.13599178
43	0x3e1fd1a9	0.15607323
44	0xbf82f5f7	-1.0231313
45	0x3ed332a5	0.41249576
46	0x3d7cbe42	0.06170488
47	0x3ddb0331	0.10693968
48	0x3e8fdc75	0.28097883
49	0x3e2f26e1	0.17104675
50	0xbc2357ad	-0.009969634
51	0x3d179869	0.037010584
52	0x3f3d53f0	0.73956203
53	0x3fb44d23	1.408604
54	0x3bbc4585	0.005745592
55	0xbdb492ec	-0.088170856
56	0x3e02b62a	0.12764803
57	0xbd7f9022	-0.062393315
58	0x3d59f95b	0.05321632
59	0xbe461149	-0.19342531
60	0x3e7b0001	0.2451172
61	0x3e232776	0.15933022
62	0xbdc63f2d	-0.096800186
63	0xbe3e16c5	-0.18563373
64	0xbd3021d0	-0.043000996
65	0xbe9565b4	-0.29179156
66	0xbb1a91fd	-0.002358555
67	0x3dd4af7d	0.10385034
68	0xbf2502c9	-0.64457375
69	0xbfaaf978	-1.3357382
70	0xbe2cc34f	-0.1687138
71	0x3e20b447	0.1569377
72	0xbd8b2d46	-0.067957446
73	0x3f44cf0a	0.76878417
74	0x3d88235c	0.06647369
75	0x3f37eb8b	0.71843785
76	0x3ecb60cb	0.39722285
77	0x3f32cbf0	0.69842434
78	0xbd0b1104	-0.033951774
79	0x3f403e8f	0.75095457
80	0x3e5cc51a	0.21559563
81	0x3f8282c0	1.0196152
82	0xbe402b2d	-0.1876647
83	0x3f4e08df	0.80482286
84	0x3e8deaa4	0.2771808
85	0x3e358edd	0.1773028
86	0xbe530951	-0.20609023
87	0x3f35ddf3	0.7104179
88	0x3dee9b79	0.11650748
89	0x3f6131b6	0.8796648
90	0xbd11dda6	-0.03561177
91	0x3f543a6d	0.8290165
92	0x3e003c4a	0.12522998
93	0x3f144001	0.5791016
94	0x3c297b5f	0.010344355
95	0x3f2fe68f	0.6871118
96	0xbbd0a762	-0.00636761
97	0xbf1e737b	-0.6189496
98	0xbc8797d4	-0.01655189
99	0x3d8338a6	0.06407289
100	0x3ee86fdd	0.45397845
101	0x3f3bbca3	0.7333471
102	0xbc197337	-0.009365848
103	0xbcbbdcc6	-0.022932421
104	0x3dbdd322	0.09268786
105	0xbef9efae	-0.48815674
106	0xbdb6ee2d	-0.08932147
107	0xbe37d47d	-0.17952152
108	0xbe3af00d	-0.18255635
109	0x3f576631	0.84140307
110	0x3d77619b	0.06039582
111	0xbdf2a06e	-0.11847006
112	0x3ea271c2	0.31727415
113	0xbf328bce	-0.69744575
114	0x3c8fb8f4	0.017544247
115	0xbebccce2	-0.36875063
116	0xbf7e2074	-0.9926827
117	0x3f472048	0.7778363
118	0xbd443971	-0.047906343
119	0xbeb240b2	-0.34814984
120	0xbd8d3779	-0.06895346
121	0xbfb4151a	-1.406894
122	0xbdc2abaf	-0.09505402
123	0xbe82c63e	-0.25541872
124	0x3db66660	0.08906245
125	0x3f5f8feb	0.87328976
126	0xbdcfb00d	-0.10141001
127	0xbeb25c4c	-0.34836042
128	0x3c3977b3	0.011320042
129	0xbfeae7b3	-1.8351959
130	0xbd8e2518	-0.06940669
131	0xbed4b4b4	-0.41544116
132	0x3e615ece	0.22008821
133	0x3f39facb	0.72648305
134	0xbd5a1de9	-0.05325118
135	0xbee9982e	-0.45623916
136	0x3defe9db	0.11714526
137	0xbff658e2	-1.9245875
138	0x3e32fde1	0.1747966
139	0xbc3b9de7	-0.011451221
140	0x3ea4152a	0.32047397
141	0x3dc659f5	0.09685127
142	0x3d9d450a	0.07679184
143	0x3dc0e103	0.094179176
144	0xbe4e4f1b	-0.20147364
145	0xbf4d44f6	-0.8018335
146	0xbd846d9a	-0.06466217
147	0xbd931448	-0.07181603
148	0x3f1faf0f	0.62376493
149	0xbf2fff6a	-0.68749106
150	0x3c432329	0.011910238
151	0xbdd3add2	-0.10335888
152	0x3e564b46	0.20927152
153	0xbf75e5e8	-0.96053934
154	0x3d9275e8	0.07151395
155	0x3e58ffef	0.21191381
156	0x3f620719	0.8829208
157	0xbe466a1e	-0.19376418
158	0x3af1293c	0.001839913
159	0x3e91a2a1	0.28444389
160	0x3e34e575	0.17665656
161	0xbf911847	-1.1335534
162	0xbd89cb5c	-0.06728241
163	0x3ed9c0a4	0.42529786
164	0x3f39ad4f	0.7253007
165	0x3e460cae	0.19340774
166	0xbd646514	-0.055760458
167	0x3ef60672	0.48051792
168	0x3f04b5bc	0.51839805
169	0x3e502c79	0.20329465
170	0x3beae268	0.007168103
171	0xbd982463	-0.07428815
172	0x3ed4d0d3	0.4156557
173	0x3da1a471	0.07892693
174	0x3d15148a	0.03639654
175	0xbd6e8720	-0.058234334
176	0x3f1b336b	0.6062533
177	0x3e464e20	0.1936574
178	0x3cfeb007	0.031089796
179	0xbe59f47d	-0.21284671
180	0x3f1e27c0	0.61779404
181	0xbf408bfc	-0.752136
182	0xbd74885b	-0.05970035
183	0xbe73fc93	-0.23826818
184	0x3eb95f39	0.36205462
185	0x3da7cdb0	0.08193529
186	0x3b5502a6	0.00325028
187	0x3f681f80	0.90673065
188	0x3ec5462f	0.38530108
189	0xbf7cd2fd	-0.9875944
190	0xbd367e55	-0.044554073
191	0x3f689d80	0.90865326
192	0xbee8d84e	-0.45477527
193	0x3f1f4713	0.62217826
194	0x3eb063e9	0.34451225
195	0x3e5b2350	0.2140019
196	0xbec31a93	-0.38106212
197	0xbefa4e94	-0.48888075
198	0x3e8c101f	0.2735605
199	0x3e5e9cdc	0.21739525
200	0xbe1f9b61	-0.15586616
201	0x3f8e57ce	1.1120546
202	0x3de139a5	0.10997323
203	0x3f2af39a	0.66777956
204	0xbe8251c4	-0.25453007
205	0xbe8e7a0b	-0.27827486
206	0x3e404566	0.18776473
207	0x3f21f4be	0.6326407
208	0xbe5d0a46	-0.2158595
209	0x3f9abdc1	1.2089158
210	0xbd96bbd8	-0.07360047
211	0x3eb9de83	0.36302575
212	0xbe9af2d4	-0.30263388
213	0xbe51a080	-0.20471382
214	0x3d917568	0.071024716
215	0x3ee49878	0.44647574
216	0x3e471a61	0.19443657
217	0x3eb0d06b	0.3453401
218	0x3d6cae65	0.057783503
219	0x3e7316ab	0.23739116
220	0x3d7046ef	0.058661398
221	0x3f89b927	1.0759629
222	0x3df70399	0.12061233
223	0x3e48aae7	0.19596444
224	0x3eb10400	0.34573364
225	0x3e3452e1	0.17609741
226	0x3ac0c944	0.0014708419
227	0x3d0cab0c	0.03434281
228	0x3ea65408	0.32485986
229	0x3f89516d	1.0727974
230	0xbda55938	-0.08073658
231	0x3dacce10	0.08437741
232	0x3e83c607	0.2573702
233	0x3eae1ac6	0.34004802
234	0xbea374a4	-0.31924927
235	0x3d10bd55	0.03533681
236	0x3eee6b16	0.46566075
237	0x3f73d76f	0.952506
238	0xbe40a557	-0.18813072
239	0xbd907134	-0.07052842
240	0x3d476827	0.04868331
241	0xbf343e79	-0.70407826
242	0x3d0d8776	0.034553014
243	0x3e96feb9	0.29491213
244	0x3e928379	0.2861593
245	0x3f55cf09	0.83519036
246	0xbd413f04	-0.047179237
247	0x3eb14f05	0.346306
248	0x3e8467cb	0.25860438
249	0xbeea7d57	-0.45798752
250	0xbd9550ed	-0.07290826
251	0x3f4a5c9b	0.79047555
252	0x3edec480	0.43509293
253	0x3e9b5dd8	0.30345035
254	0xbde8988b	-0.1135722
255	0x3f67ffb9	0.90624577

fc1.bias f4 [128]
0	0xbd52b2af	-0.051439937
1	0x3c96216c	0.018326484
2	0xbd5fd2e5	-0.054644484
3	0xbe4cb874	-0.19992238
4	0xbcac3f2f	-0.021026222
5	0x3dcc10a1	0.09964109
6	0xbcc2375d	-0.02370804
7	0xbdcde1bd	-0.10052822
8	0x3bd3ed64	0.006467508
9	0x3d189614	0.0372525
10	0xbd694f59	-0.056960437
11	0xbe2231cb	-0.15839307
12	0xbde0262d	-0.109447815
13	0xbd086808	-0.033302337
14	0x3d96035e	0.07324861
15	0x3e39e304	0.18153006
16	0x3b6de26e	0.0036298293
17	0x3d95b69b	0.0731022
18	0x3df09552	0.117472306
19	0xbdb641ea	-0.08899291
20	0xbd8aabd5	-0.067710556
21	0x3e0a8b0a	0.13529602
22	0x3e15a2a8	0.1461283
23	0x3d463acb	0.048395913
24	0xbe230d71	-0.15923096
25	0x3ded4ae1	0.11586548
26	0xbe2cc1b0	-0.16870761
27	0x3dd103d1	0.10205806
28	0x3cc66284	0.024216898
29	0x3d8701fd	0.06592176
30	0xbe4ba6fe	-0.19887921
31	0xbd92c95f	-0.07167315
32	0x3db17daf	0.0866655
33	0x3e20d519	0.1570629
34	0xbd6f32fb	-0.05839823
35	0x3e3a5ee5	0.18200262
36	0xbd3a30d1	-0.04545671
37	0xbdfc1c23	-0.12310054
38	0xbdb544c4	-0.088510066
39	0x3c50612d	0.012718481
40	0xbd147b1b	-0.036250215
41	0x3dca4a80	0.09877491
42	0xbde7b4dc	-0.11313793
43	0xbd6db84b	-0.058037084
44	0xbe4f1cce	-0.20225832
45	0x3e2ab576	0.16670784
46	0xbd1d4cf8	-0.03840348
47	0xbe24c613	-0.16091184
48	0xbc21e07f	-0.009880184
49	0xb9c320fb	-0.0003721787
50	0x3d6808d2	0.056649037
51	0xbcb7e399	-0.022447394
52	0x3e03747f	0.12837408
53	0xbd9052fa	-0.070470765
54	0xbd7aa9a6	-0.061196946
55	0xbd46933f	-0.04848027
56	0x3d15210f	0.03640848
57	0x3e278281	0.16358377
58	0xbc1ab20d	-0.009441865
59	0x3e20d598	0.1570648
60	0x3e24412a	0.16040483
61	0xbdd9a1c8	-0.106265604
62	0xbc8f7fa7	-0.017516924
63	0xbdc557af	-0.09635865
64	0x3dadfbfc	0.08495328
65	0xbd92a91d	-0.07161162
66	0x3d7ee80b	0.062233012
67	0x3c4978c1	0.012296856
68	0xbe093d68	-0.13402331
69	0xbe0c898e	-0.13724348
70	0xbe4c2618	-0.19936407
71	0xbde9bc1c	-0.11412832
72	0x3d6a5196	0.057206713
73	0x3c46f44c	0.012143206
74	0x3e1d3434	0.15351945
75	0xbe37d83c	-0.1795358
76	0xbbcb5dee	-0.0062062657
77	0xbe3b6c93	-0.18303137
78	0x3aa00a43	0.001221009
79	0x3d984bcd	0.07436333
80	0xbe3bb926	-0.18332347
81	0x3e38ad15	0.18034776
82	0xbd81e7f9	-0.063430734
83	0x3e3901e8	0.18067133
84	0xbd0be88d	-0.034157325
85	0x3ded31a8	0.11581737
86	0x3e3e01d7	0.1855539
87	0xbd986b75	-0.07442371
88	0xbd4b930c	-0.04970078
89	0x3ddb5250	0.10709059
90	0xbe32a494	-0.17445594
91	0x3df77c09	0.12084205
92	0xbe03b881	-0.12863351
93	0x3e421762	0.18954232
94	0xbe0901d6	-0.13379607
95	0xbdabaef8	-0.08382982
96	0x3e1c05e5	0.15236624
97	0xbdb5baf6	-0.088735506
98	0x3e33119b	0.17487185
99	0x3e0fd02f	0.1404426
100	0x3e3f0865	0.18655546
101	0xbe4a98f9	-0.19784917
102	0x3b159a3b	0.0022827524
103	0xbd8991ff	-0.067173
104	0x3d4737e5	0.04863729
105	0xbe1dddaa	-0.1541659
106	0x3dab6d69	0.08370478
107	0xbc1e3e0b	-0.009658347
108	0xbdc595ef	-0.09647738
109	0xbe3bfaaf	-0.18357347
110	0x3ddb055f	0.10694384
111	0xbd976fd8	-0.073943794
112	0x3e1a3bb6	0.1506184
113	0x3d1509b8	0.03638622
114	0x3d7e4423	0.0620767
115	0xbcfd026d	-0.030884946
116	0xbce70b5e	-0.028203662
117	0xbd8e1ffa	-0.06939693
118	0xbe34e6b2	-0.17666128
119	0x3e036ad8	0.12833726
120	0xbe03a3d2	-0.12855461
121	0x3df3a465	0.1189659
122	0xbd8c43ea	-0.06848891
123	0x3e02f7c1	0.12789823
124	0x3e331f69	0.17492451
125	0xbdfff393	-0.1249763
126	0x3e2c96a5	0.16854341
127	0x3ba259d6	0.004954557

bn1.weight f4 [128]
0	0x3f4d3187	0.801537
1	0x3f791812	0.97302353
2	0x3fb37801	1.4020997
3	0x3fb1a123	1.38773
4	0x3fd52966	1.6653259
5	0x3f829c45	1.020394
6	0x3fea368a	1.8297894
7	0x3fa47ca0	1.2850533
8	0x3f45c0d6	0.7724737
9	0x3ea14643	0.31498918
10	0x3f995448	1.1978846
11	0x3fe236da	1.7672989
12	0x3eaf2222	0.3420573
13	0x3f7207d4	0.94543195
14	0x3f94cbad	1.1624657
15	0x3f1ee85f	0.6207332
16	0x3f8a3ebd	1.0800396
17	0x40053090	2.081089
18	0x3f6cddf6	0.92526186
19	0x3ecf3e2a	0.40477115
20	0x3faf6ba2	1.3704722
21	0x3f9a8b37	1.2073735
22	0x3ff5899f	1.9182624
23	0x3f1a0eea	0.6017901
24	0x3fdce500	1.7257385
25	0x3f81ce5f	1.0141104
26	0x3baeb427	0.0053315344
27	0x3f995be7	1.1981171
28	0x3f3320b5	0.6997178
29	0x3f4f235e	0.8091334
30	0x3f98da11	1.1941549
31	0x3ff9f8b7	1.9529027
32	0x3fd83d2a	1.6893666
33	0x401c9689	2.446688
34	0x401557d6	2.333486
35	0x3f2f2e73	0.6843025
36	0x3fa87f0b	1.316377
37	0x3fc0a680	1.5050812
38	0x3f8ac091	1.0840017
39	0x3f3a1157	0.7268271
40	0x3f27308e	0.65308464
41	0x3f6e2299	0.9302154
42	0x3f8f1f6d	1.1181465
43	0x3f6ccfa1	0.92504317
44	0x3f47c72a	0.78038275
45	0x3fbe8701	1.488495
46	0x3fae2c8f	1.3607348
47	0x3e8264a8	0.2546742
48	0x3f98ea41	1.1946489
49	0x3f308c24	0.6896384
50	0x3f98ac84	1.1927648
51	0x3ef75abc	0.48311412
52	0x400d0d5c	2.2039404
53	0x3f8dc039	1.1074287
54	0x3f2c6e5b	0.6735589
55	0x3f94b72a	1.1618397
56	0x3f9793c4	1.184197
57	0x3ecdab6b	0.40169844
58	0x3effd4a6	0.49966925
59	0x3f2952fa	0.6614224
60	0x3f48d2f7	0.78446907
61	0x3faae1a4	1.335011
62	0x3fa9dbaf	1.3270167
63	0xbb759c37	-0.0037477145
64	0x3f8d1b0d	1.102388
65	0x3f6fd231	0.936801
66	0x3fdba208	1.7158823
67	0x3f876c11	1.0579854
68	0x3f3252ba	0.6965748
69	0x3f8f088d	1.1174484
70	0x3ec812de	0.39076895
71	0x3f1fb287	0.62381786
72	0x3f2f26bc	0.6841848
73	0x3f9798d5	1.1843516
74	0x3d13b4a9	0.036060963
75	0x3fa14f07	1.2602242
76	0x3f487725	0.783068
77	0x3fb229ba	1.3918984
78	0x3f7d8d8b	0.990441
79	0x3f8b132b	1.0865225
80	0x3f52807d	0.8222731
81	0x3f555f50	0.8334856
82	0x3f94848a	1.1602948
83	0x4012615f	2.287193
84	0x3f80d72a	1.0065663
85	0x3f6ef38a	0.9334036
86	0x3f9413f2	1.1568587
87	0x3f91720c	1.1362929
88	0x3fc27f5a	1.5195115
89	0x3f4ae1be	0.79250705
90	0x3f9f9b64	1.2469296
91	0x3f53f63d	0.82797605
92	0x4005fba9	2.093485
93	0x3fcba978	1.5911093
94	0x3f95e380	1.1710052
95	0x40088e3e	2.1336818
96	0x3fd74ee1	1.6820947
97	0x3fcb6e47	1.5893029
98	0x3fb09930	1.3796749
99	0x3f18ba46	0.5965923
100	0x3f33899d	0.70131856
101	0x3ef42a58	0.47688556
102	0x3f3629fa	0.711578
103	0x3f61822f	0.8808927
104	0x3f2eb55e	0.68245494
105	0x3ee12ebc	0.43980968
106	0x3ef1b247	0.47206327
107	0x3f88d5bc	1.0690227
108	0x3f7f8658	0.9981437
109	0x3f8e9c6a	1.1141484
110	0x3fb368d1	1.4016362
111	0x3f970dbf	1.180107
112	0x3f13f151	0.57790095
113	0x3f644b9d	0.89177877
114	0x3f7970df	0.9743785
115	0x400b56ba	2.1771684
116	0x3f73721d	0.95096
117	0x3f31525e	0.6926631
118	0x3fe2a8de	1.7707784
119	0x3f3dbf47	0.7411999
120	0x3eff0768	0.49810338
121	0x3e662f89	0.2247907
122	0x3fb01076	1.3755023
123	0x3f336484	0.7007525
124	0x3fa31faf	1.2744044
125	0x3f714169	0.9424043
126	0x3f385eba	0.7201954
127	0x3f6dd576	0.9290384

bn1.bias f4 [128]
0	0x3d508327	0.050906327
1	0xbf71dc4b	-0.94476765
2	0xbe52e87e	-0.20596501
3	0xbeabfd8f	-0.33591887
4	0xbc9ad744	-0.018901475
5	0x3f242766	0.6412262
6	0x3ee969a6	0.45588416
7	0xbed87eae	-0.4228415
8	0xbf23f14b	-0.6404006
9	0x3e75707e	0.23968694
10	0x3ecbd6fa	0.39812452
11	0xbea334f8	-0.3187635
12	0x3edfbe3c	0.43699825
13	0xbcd6d29f	-0.026223479
14	0xbee24158	-0.44190478
15	0xbf3caa2f	-0.7369718
16	0xbf02bb00	-0.5106659
17	0x3e5c90f3	0.21539669
18	0xbdca11b0	-0.09866655
19	0xbea1130a	-0.31459838
20	0xbef4a4a7	-0.4778187
21	0x3f10ec6f	0.5661077
22	0xbe173423	-0.14765982
23	0x3d43c9f7	0.04780003
24	0x3f3af871	0.7303534
25	0x3f0d9d95	0.55318576
26	0xbcbc4c0c	-0.02298548
27	0xbb165084	-0.0022936175
28	0xbee5a6cb	-0.44853815
29	0x3ee56417	0.44802925
30	0x3d31fabc	0.04345201
31	0xbcec0516	-0.028811019
32	0xbe81bdc6	-0.25340098
33	0x3ea4faae	0.32222503
34	0x3dcefdaa	0.10106976
35	0xbe8f8ef6	-0.28038758
36	0xbec81b7f	-0.39083478
37	0xbf7d9626	-0.99057233
38	0x3ee190eb	0.44055876
39	0xbecfd3fa	-0.40591413
40	0xbe356abd	-0.17716499
41	0xbf01a5fd	-0.50643903
42	0xbf00ea1c	-0.5035722
43	0xbf3416a5	-0.7034705
44	0xbe20eed3	-0.15716104
45	0xbf129dd0	-0.5727205
46	0xbf61cc9f	-0.8820285
47	0x3efb7830	0.49115133
48	0xbf34c9b7	-0.7062029
49	0xbdda73ce	-0.10666619
50	0xbf1d8908	-0.6153722
51	0xbe9996a5	-0.29997745
52	0xbe40ece6	-0.1884037
53	0xbe86c275	-0.26320234
54	0xbf15e158	-0.5854697
55	0x3e22ffc7	0.15917884
56	0xbf8d94b7	-1.1061009
57	0x3f4300ae	0.7617291
58	0xbebce4c8	-0.36893296
59	0xbef196a1	-0.47185233
60	0xbefe471b	-0.49663624
61	0xbee7476e	-0.45171684
62	0xbf5b5473	-0.85675734
63	0xbcae9ca0	-0.021314919
64	0xbe14e9db	-0.14542334
65	0xbdb9e9bf	-0.09077787
66	0xbf339828	-0.70154047
67	0xbee9c330	-0.4565673
68	0xbf593b49	-0.84856087
69	0x3c895d77	0.0167682
70	0x3ea2033a	0.31643087
71	0xbe6633ae	-0.22480652
72	0xbede0ff8	-0.43371558
73	0xbef7ede6	-0.4842369
74	0x3f3c7783	0.7361986
75	0xbe84e746	-0.25957698
76	0xbea2e4f4	-0.31815302
77	0xbf1795f7	-0.59213203
78	0xbd0e87e9	-0.034797583
79	0xbecc1b0e	-0.3986439
80	0xbf2bc318	-0.67094564
81	0xbf7149d9	-0.9425331
82	0xbee5e8ba	-0.4490412
83	0x3de7cf21	0.113188036
84	0x3daf9008	0.08572394
85	0xbf0b68ae	-0.54456604
86	0xbe8c129c	-0.27357948
87	0xbf2f2344	-0.68413186
88	0xbec6368c	-0.3871349
89	0xbf008167	-0.5019745
90	0x3e97b0b8	0.29627013
91	0xbf58a7bd	-0.8463095
92	0x3ef51a23	0.47871503
93	0xbe8f1436	-0.27945107
94	0xbf605a62	-0.87637913
95	0xbf1ae53e	-0.60506046
96	0x3dd54781	0.10414029
97	0xbeb9fa67	-0.36323854
98	0xbf19da29	-0.6009851
99	0xbee472ee	-0.44618934
100	0x3e8c226e	0.27370018
101	0xbdf8707a	-0.12130828
102	0xbf3902a1	-0.72269636
103	0xbedc8e62	-0.4307738
104	0xbedba231	-0.4289718
105	0x3e54d754	0.20785266
106	0xbee80e58	-0.45323443
107	0xbeae10cb	-0.33997187
108	0xbe9f6c04	-0.31137097
109	0xbf43a57b	-0.7642438
110	0x3f0ac3eb	0.542052
111	0xbf029386	-0.5100635
112	0xbe8c7b95	-0.27438036
113	0xbee952d6	-0.4557101
114	0x3b791100	0.0038004518
115	0x3ceb9116	0.028755706
116	0xbee204b2	-0.44144207
117	0x3e57c8d4	0.21072704
118	0xbec06979	-0.3758047
119	0xbe360dd0	-0.17778707
120	0x3e0778eb	0.1322972
121	0xbe861367	-0.26186678
122	0x3ea241e0	0.31690884
123	0xbeb0bd48	-0.3451941
124	0xbf4743b5	-0.7783769
125	0x3e1cc850	0.15310788
126	0xbe57c6d0	-0.21071935
127	0xbead6a8d	-0.33870354

bn1.running_mean f4 [128]
0	0x4031492e	2.7700915
1	0xbf1e1685	-0.6175311
2	0xc032dcf0	-2.794735
3	0xc03dcfef	-2.9658163
4	0x40862aac	4.192709
5	0x40ee53c6	7.4477262
6	0xbfb6b356	-1.4273479
7	0xc156b9de	-13.420378
8	0x40ba3b64	5.81975
9	0xbea6132f	-0.3243651
10	0xc0a667b9	-5.2001615
11	0xbed7167a	-0.42009336
12	0x3eefaa99	0.46809843
13	0xc0f2ab6c	-7.5834255
14	0xc18b0120	-17.37555
15	0x40d10a1d	6.5324845
16	0xc06be03c	-3.6855612
17	0xc0f3efc4	-7.6230183
18	0x3f19a708	0.60020494
19	0xc112fc6e	-9.186628
20	0x3eb38667	0.35063478
21	0xc1402b06	-12.010504
22	0xc0b712b6	-5.721034
23	0xc1102c20	-9.010773
24	0x3fb5fd18	1.4217863
25	0x40f863ee	7.7621984
26	0x3f18ed1b	0.59736794
27	0x40b8a739	5.770413
28	0x415ae815	13.681661
29	0x410f7493	8.9659605
30	0x414e19d5	12.881307
31	0x409387b5	4.610316
32	0x402e0455	2.7190144
33	0x40b933a5	5.7875543
34	0x410a5fad	8.648358
35	0x41565152	13.394854
36	0xc12b65af	-10.712325
37	0xbfb3a3f0	-1.4034405
38	0x40d1b68d	6.553534
39	0xc15729c8	-13.4477005
40	0x3fb378a7	1.4021195
41	0x40b3213b	5.5978065
42	0xc0a30fca	-5.0956774
43	0xc0693e0c	-3.644412
44	0xc0302b28	-2.752634
45	0x40aa4b5a	5.321698
46	0x3f598364	0.8496611
47	0x40fd9049	7.923863
48	0xc0a87ca0	-5.265213
49	0x411d5659	9.833581
50	0x3ed3c2f6	0.4135968
51	0x415b89ca	13.72114
52	0x3f90075e	1.1252248
53	0x3fc528e9	1.540311
54	0x4046d8ee	3.1069903
55	0x4107b470	8.481552
56	0x4116b348	9.41877
57	0x3f9065f3	1.1281112
58	0xc12109d9	-10.064904
59	0xc07da897	-3.963415
60	0x40e6fb96	7.218211
61	0x40e48dda	7.142316
62	0x412056a3	10.021152
63	0x3e9e0855	0.30865732
64	0xc0afadd4	-5.4899693
65	0x4155fb6c	13.373882
66	0x412d568a	10.833628
67	0x4184dbb7	16.607283
68	0x408608d9	4.18858
69	0x403d9f94	2.9628649
70	0x40140a56	2.3131309
71	0x40f7042b	7.719259
72	0x406ee1e0	3.7325363
73	0xc1647f17	-14.281028
74	0x41454795	12.329976
75	0x40cddabf	6.4329524
76	0x4036529c	2.848792
77	0xc079e3f9	-3.9045393
78	0xc0b9e443	-5.809114
79	0xc106faeb	-8.436259
80	0x3f039d29	0.5141168
81	0xc0f0be95	-7.5232644
82	0x40fee00b	7.964849
83	0x3f7abdab	0.9794566
84	0x410b9c42	8.725649
85	0x3f34073a	0.70323527
86	0xbff00ee5	-1.8754545
87	0xc0c370a8	-6.107502
88	0x409d79b5	4.921107
89	0x404431c8	3.0655384
90	0x41260308	10.37574
91	0x4138b549	11.544259
92	0x3dbb9413	0.09159102
93	0x40d3073d	6.5946336
94	0xc10c0f2d	-8.753705
95	0x40736089	3.802767
96	0x40d0f271	6.529595
97	0x40c55776	6.1669264
98	0xc0ac2dd6	-5.380595
99	0x40bac7c9	5.836888
100	0x4167da0c	14.490734
101	0xc0a3ec02	-5.1225595
102	0xc112e28f	-9.180312
103	0x4153f2cd	13.246778
104	0xc00978cd	-2.147998
105	0x3f86b6ea	1.0524571
106	0x410cad75	8.792348
107	0xc0017084	-2.0224924
108	0xc0ed630d	-7.418341
109	0x408bb38c	4.3656673
110	0x40e23166	7.06853
111	0x40d45551	6.6354146
112	0xc02c468b	-2.6918056
113	0xbe29db6f	-0.16587614
114	0x409c31e6	4.881091
115	0x40721cbd	3.783004
116	0xc176b9f1	-15.420396
117	0xc0b62cde	-5.692977
118	0x3f73b7a0	0.95202065
119	0x414eee78	12.93322
120	0xc0eb2c1f	-7.349136
121	0xbf985770	-1.1901684
122	0xbf622bcd	-0.88348085
123	0x412975ee	10.591291
124	0x4032be9c	2.7928839
125	0x40d54519	6.664685
126	0x40859ae6	4.1751585
127	0x401cf060	2.4521713

bn1.running_var f4 [128]
0	0x42a9b6f2	84.857315
1	0x434c824a	204.50894
2	0x41d10544	26.127571
3	0x437d147e	253.08005
4	0x4232cb52	44.698555
5	0x42d14712	104.63881
6	0x432883e6	168.51523
7	0x4326d099	166.81483
8	0x438c59b2	280.70074
9	0x43292fbc	169.18646
10	0x43244368	164.2633
11	0x42cad840	101.42236
12	0x43b04f87	352.6213
13	0x42b1b796	88.85857
14	0x42989eb9	76.310005
15	0x42dc096a	110.01839
16	0x42198f44	38.389908
17	0x4291c361	72.8816
18	0x41f8762a	31.057697
19	0x44279eb2	670.4796
20	0x42d23602	105.105484
21	0x4283ac68	65.83673
22	0x439c5aaa	312.7083
23	0x437fff05	255.99617
24	0x408d8993	4.4230437
25	0x42726a29	60.603672
26	0x40e3de1e	7.120864
27	0x422d2fa1	43.296513
28	0x43a119ce	322.2016
29	0x4275e2c0	61.471436
30	0x4322418f	162.25609
31	0x4207c01b	33.937603
32	0x430de974	141.91193
33	0x42859881	66.79786
34	0x43ed79d2	474.95172
35	0x42bf6e38	95.71527
36	0x42463f48	49.5618
37	0x41ff5fcf	31.921782
38	0x4211c7d1	36.445133
39	0x43a1b53c	323.4159
40	0x4365a45c	229.64203
41	0x4324c3be	164.76462
42	0x4300a5ff	128.64842
43	0x42256002	41.343758
44	0x43acf1f7	345.89035
45	0x42c722f5	99.568275
46	0x41a173df	20.181578
47	0x4422d7bd	651.3709
48	0x4304f596	132.95932
49	0x43a6969f	333.17673
50	0x433b7bdd	187.48384
51	0x43204f43	160.30962
52	0x40bb5366	5.8539305
53	0x423d86bf	47.381588
54	0x43a3d079	327.6287
55	0x431f85b9	159.52235
56	0x43170b1d	151.04341
57	0x434e9a7b	206.60344
58	0x43683b99	232.2328
59	0x43bb4be6	374.59296
60	0x4356921d	214.57076
61	0x4294468d	74.137794
62	0x42ceeca2	103.46217
63	0x4149931f	12.598418
64	0x4388ed76	273.85516
65	0x4303d3ce	131.82736
66	0x42984f06	76.15434
67	0x42976130	75.68982
68	0x42f224e2	121.07204
69	0x433a5ac7	186.3546
70	0x43aee02d	349.75137
71	0x43d1c495	419.5358
72	0x42f0103c	120.03171
73	0x426f06e7	59.75674
74	0x44331583	716.3361
75	0x431a94f7	154.5819
76	0x42923380	73.100586
77	0x42bf8a15	95.76969
78	0x42b977e4	92.73416
79	0x42e286b0	113.26306
80	0x427ddf48	63.46805
81	0x4372bc97	242.73668
82	0x4280149f	64.040276
83	0x40e39752	7.1122217
84	0x42e8a1d7	116.31609
85	0x43953002	298.37506
86	0x429ebd28	79.369446
87	0x426061df	56.095577
88	0x41fce32e	31.610928
89	0x43704b07	240.29308
90	0x4204d56b	33.208416
91	0x4426fd07	667.95355
92	0x40cbee2c	6.3728237
93	0x430d2d91	141.178
94	0x42d1d3d3	104.91372
95	0x4180c645	16.096811
96	0x430d6329	141.38734
97	0x42a8e3e0	84.44507
98	0x4258c8c6	54.196068
99	0x42ceed3c	103.46335
100	0x42d7e0e1	107.93922
101	0x434fa94c	207.66132
102	0x4364e7b2	228.90506
103	0x43a631dd	332.38956
104	0x434c46f6	204.27719
105	0x4336374f	182.21605
106	0x4404d869	531.3814
107	0x42680e81	58.014164
108	0x429e7c8b	79.24325
109	0x4280e14a	64.44002
110	0x41e292d8	28.321701
111	0x42d3c5d3	105.886375
112	0x43f7de33	495.73593
113	0x42999f7c	76.81149
114	0x428306c0	65.51318
115	0x42bd380c	94.60947
116	0x42ae8be0	87.27319
117	0x4377292d	247.16084
118	0x428ec99e	71.39378
119	0x431051ea	144.31998
120	0x431bb951	155.72389
121	0x43926aa1	292.83304
122	0x410c2f9b	8.761622
123	0x433fc96d	191.78682
124	0x430fb5c5	143.71004
125	0x42946dec	74.21469
126	0x443ac1e2	747.0294
127	0x4331e77b	177.90422

fc2.weight f4 [64, 128]
0	0xbef6daa1	-0.48213676
1	0x3f21429e	0.62992275
2	0xbd459728	-0.048239857
3	0x3e763e36	0.24047169
4	0x3ef5ca4e	0.4800591
5	0xbe7592ed	-0.23981829
6	0xbe9a96c2	-0.30193144
7	0xbe675864	-0.22592312
8	0x3f089979	0.5335918
9	0xbd5e7287	-0.05430844
10	0x3c4aaf27	0.012370861
11	0x3f158fba	0.58422434
12	0x3ee2799e	0.44233412
13	0xbf20d130	-0.62819195
14	0xbc6d2943	-0.01447517
15	0x3df8b93b	0.12144705
16	0xbe5eb396	-0.21748194
17	0xbf1973bd	-0.5994223
18	0x3ce5178c	0.02796533
19	0xbf182de5	-0.5944503
20	0x3f5dfca4	0.86713624
21	0x3d7a0c9f	0.061047193
22	0x3de23f97	0.11047285
23	0x3f22f230	0.636508
24	0x3e8502cc	0.25978696
25	0xbeafc022	-0.34326273
26	0xbc2346de	-0.0099656265
27	0xbe1c04c4	-0.15236193
28	0x3f8186c0	1.0119247
29	0x3cd14962	0.025547687
30	0xbf58ea37	-0.84732383
31	0xbf27608b	-0.6538169
32	0x3e208254	0.15674716
33	0x3bda74a3	0.006666736
34	0x3d5c8535	0.053837974
35	0x3d3ff6e8	0.046866328
36	0x3e118909	0.14212431
37	0xbeb9decf	-0.36302802
38	0xbea596fd	-0.32341757
39	0x3e3f2ce7	0.18669473
40	0xbef845b7	-0.48490688
41	0xbcca4e6c	-0.024695598
42	0xbecc50b9	-0.39905336
43	0x3db2d24e	0.08731519
44	0x3d3e8451	0.046512906
45	0x3f403065	0.75073844
46	0x40019c5b	2.0251682
47	0xbc598e3b	-0.013278539
48	0x3ee7081d	0.45123377
49	0xbe217588	-0.15767491
50	0x3e4dc52c	0.20094746
51	0xbcfdc7f9	-0.030979143
52	0x3e5bfe19	0.2148365
53	0x3f3149cc	0.6925323
54	0xbece6ec2	-0.40318877
55	0xbd86eb59	-0.06587858
56	0x3f891710	1.0710163
57	0xbd82289e	-0.06355403
58	0x3d2b693b	0.041848402
59	0xbe4733f1	-0.19453408
60	0x3dba72a9	0.09103901
61	0xbe84828a	-0.25880843
62	0xbd8fe724	-0.070265085
63	0x3dcd8ede	0.100370154
64	0xbe2de94e	-0.1698353
65	0xbe71034d	-0.23536415
66	0x3ecccccf	0.40000007
67	0x3e5e16c6	0.21688375
68	0xbf0d7696	-0.5525907
69	0xbf40fe00	-0.75387573
70	0xbe6e8f14	-0.23296767
71	0xbe540e2d	-0.20708533
72	0x3e94af1b	0.29039845
73	0x3eece2a4	0.46266663
74	0xbe05261f	-0.13002823
75	0xbe163e39	-0.14672174
76	0x3f455a26	0.7709068
77	0x3edf624d	0.43629685
78	0x3d6acd21	0.057324532
79	0x3eab06ac	0.33403528
80	0x3ed3d070	0.41369963
81	0xbe719fcf	-0.23596118
82	0x3f534cbd	0.8253897
83	0xbf1c74b5	-0.6111558
84	0x3e2258cc	0.15854186
85	0x3e08c988	0.13358128
86	0xbe8eb0a9	-0.27869156
87	0x3f210caa	0.6290995
88	0xbf94cd38	-1.1625128
89	0xbe82ef15	-0.2557303
90	0xbf3a785a	-0.7283989
91	0x3f0adff7	0.54247993
92	0x3e917387	0.28408453
93	0xbefffd6e	-0.4999804
94	0x3f1506ed	0.5821369
95	0xbff42be2	-1.9075892
96	0xbe9c3a3e	-0.30513185
97	0x3d1cc53a	0.038274027
98	0xbea29941	-0.31757548
99	0xbea0ad2e	-0.31382126
100	0xbf6ae125	-0.91749793
101	0x3e8dcbab	0.2769445
102	0x3f093603	0.5359804
103	0xbe9f53fd	-0.31118765
104	0x3c0aa81d	0.008462933
105	0xbe5455fa	-0.20735922
106	0x3f16da4e	0.58926857
107	0xbe099fc2	-0.13439849
108	0xbe1ff9d8	-0.15622652
109	0x3e5f5926	0.21811351
110	0xbe9a5f6c	-0.30150926
111	0x3deae0d5	0.114686646
112	0xbaa6d470	-0.0012728106
113	0x3e213f71	0.15746857
114	0x3e94d8e2	0.29071718
115	0x3f82baef	1.0213298
116	0xbe398b0c	-0.18119448
117	0xbf2c3fb0	-0.6728468
118	0xbe34a29c	-0.17640156
119	0xbdd3bf94	-0.10339275
120	0xbd580e7e	-0.052748196
121	0xbe9fdb61	-0.3122206
122	0xbcb385e9	-0.02191444
123	0xbec718f7	-0.38886234
124	0x3e2fc605	0.17165382
125	0x3d7a4332	0.06109924
126	0x3e8c714e	0.27430195
127	0xbe680420	-0.22657824
128	0x3cb95547	0.022623671
129	0xbed05378	-0.40688682
130	0xbf0542b9	-0.52054936
131	0xbf2c7d8a	-0.6737906
132	0x3d8436db	0.06455775
133	0xbdf825f3	-0.12116613
134	0x3f186eda	0.59544146
135	0x3f02e6ec	0.5113361
136	0x3ef5bd40	0.4799595
137	0xbd945d75	-0.07244388
138	0xbbd00e30	-0.0063493475
139	0xbeb660d9	-0.35620764
140	0xbe940902	-0.28913122
141	0xbe294cfa	-0.1653327
142	0x3e3e4994	0.18582755
143	0xbea4d3f4	-0.32192957
144	0xbd604f4f	-0.054763135
145	0xbdacdda4	-0.08440712
146	0xbdc34085	-0.095337905
147	0xbea9b5ae	-0.33146423
148	0x3f4b4999	0.79409176
149	0xbf18e3f1	-0.5972281
150	0x3eee86db	0.46587262
151	0x3f4504aa	0.7696024
152	0xbd030081	-0.031982902
153	0x3e9d42f5	0.30715147
154	0xbc820999	-0.015873717
155	0xbf1dc842	-0.61633694
156	0x3e614440	0.21998692
157	0xbdb5b872	-0.08873071
158	0x3e1dc896	0.15408549
159	0x3dcbe3b1	0.09955538
160	0x3f16dc97	0.58930343
161	0xbd891d9e	-0.06695102
162	0x3d90f781	0.070784576
163	0xbf462cb1	-0.77411944
164	0xbf2d7d86	-0.6776966
165	0xbef2b71e	-0.47405332
166	0xbf1847d4	-0.594846
167	0xbe02a042	-0.12756446
168	0x3fa71340	1.305275
169	0xbf4ad6ae	-0.79233825
170	0x3f40ec57	0.75360626
171	0x3e398f2e	0.18121025
172	0xbeb76111	-0.35816243
173	0xbdd1e6fa	-0.102491334
174	0x3f8fa74f	1.1222934
175	0x3cb0d1f2	0.021584485
176	0xbed6bed6	-0.4194247
177	0x3e210b09	0.15726866
178	0x3dde581a	0.10856648
179	0xbf88a331	-1.0674802
180	0x3ec25ecc	0.3796295
181	0xbc489e9a	-0.012244845
182	0xbe02d6b9	-0.12777223
183	0x3ccc9c26	0.024976801
184	0xbf754707	-0.95811504
185	0x3db74291	0.089482434
186	0xbf0c6b94	-0.5485165
187	0x3f146627	0.5796837
188	0xbf155fe8	-0.58349466
189	0xbf0641aa	-0.52443945
190	0x3efcaa1d	0.49348536
191	0xbd6b129f	-0.057390805
192	0x3f1d3436	0.6140779
193	0xbeb69a6b	-0.35664687
194	0x3c9e5ff2	0.01933286
195	0xbed91613	-0.42399654
196	0x400785a6	2.1175323
197	0xbd59da05	-0.053186435
198	0x3e9d2dc4	0.3069898
199	0x3ebbf041	0.36706737
200	0x3f22349d	0.6336153
201	0xbed092bf	-0.40736958
202	0x3c4bf925	0.012449537
203	0x3f80f76e	1.007551
204	0xbf543c0d	-0.8290413
205	0xbeaf0cd5	-0.34189478
206	0xbca92273	-0.02064631
207	0xbdef0fc8	-0.11672932
208	0x3e32fa6d	0.17478342
209	0x3df1da84	0.11809257
210	0x3efa39d4	0.48872244
211	0xbe5db120	-0.21649599
212	0xbcbb5abb	-0.022870412
213	0x3eb44b38	0.35213637
214	0xbc3c950d	-0.011510146
215	0xbf20cd16	-0.62812936
216	0xbe111d05	-0.14171226
217	0x3f40062c	0.7500942
218	0x3e7aecb0	0.24504352
219	0x3d5c9330	0.053851306
220	0x3e8774cb	0.26456293
221	0xbdfc5292	-0.123204365
222	0xbfcad27d	-1.5845486
223	0x3f3b9234	0.73269963
224	0xbf1c8b81	-0.61150366
225	0xbeed7662	-0.4637938
226	0xbeebf153	-0.46082553
227	0xbfaf0f2a	-1.3676503
228	0xbe5dd1f3	-0.2166212
229	0x3f13a18e	0.5766839
230	0x3db5c6a2	0.08875777
231	0x3f5a3905	0.85243255
232	0x3f3e40e7	0.74317783
233	0x3e30fdca	0.17284313
234	0x3ea0dbad	0.314176
235	0x3f2feb04	0.6871798
236	0x3eec4370	0.461452
237	0x3ebbca52	0.36677796
238	0xbde52943	-0.11189511
239	0xbef18167	-0.4716904
240	0xbe0bd6a0	-0.13656092
241	0xbe557ed8	-0.20849168
242	0x3d9ae939	0.07564015
243	0x3f5b7e6c	0.8573978
244	0xbfb048d6	-1.3772228
245	0x3c50cfae	0.012744827
246	0x3cd1e315	0.025620976
247	0xbe6a3f10	-0.22875619
248	0x3e012f6f	0.1261575
249	0xbe091e52	-0.13390473
250	0xbf30b20a	-0.69021666
251	0xbe1e8e1f	-0.15483902
252	0xbe8a29e9	-0.269851
253	0xbe79cd14	-0.24394637
254	0xbee60dd6	-0.4493243
255	0x3f179ec7	0.5922665

fc2.bias f4 [64]
0	0x3dcc6c27	0.09981566
1	0xbd3e4c05	-0.046459217
2	0xbe6b5ec4	-0.22985369
3	0xbe108508	-0.14113247
4	0xbec7df64	-0.3903762
5	0xbee1f804	-0.44134533
6	0xbe534ca9	-0.20634712
7	0x3ddd1028	0.10794097
8	0xbe6c4c95	-0.23076089
9	0xbee4a317	-0.44655678
10	0xbb41765f	-0.0029520018
11	0xbf127256	-0.5720571
12	0xbeab7b4a	-0.334925
13	0xbe96f1dc	-0.294814
14	0xbeb4aacf	-0.35286567
15	0xbe098a63	-0.13431697
16	0xbf488bce	-0.78338325
17	0xbca2fb2d	-0.01989516
18	0xbe87956c	-0.26481187
19	0xbdc69443	-0.096962474
20	0xbef33945	-0.4750463
21	0xbee24ed9	-0.4420078
22	0xbe797ec5	-0.24364765
23	0xbf06fa40	-0.527256
24	0x3d7b09c8	0.061288625
25	0xbe566abe	-0.20939156
26	0xbe3af6f4	-0.18258268
27	0x3d14a665	0.0362915
28	0xbea52618	-0.32255626
29	0xbf0c36e5	-0.5477126
30	0x3d37b30d	0.04484849
31	0xbe9ff02f	-0.31237933
32	0xbf0697b4	-0.5257523
33	0xbe6f6bd4	-0.23380977
34	0x3e30dfe5	0.17272909
35	0x3db0a3f8	0.086250246
36	0xbed36d58	-0.4129436
37	0xbed16068	-0.40893865
38	0xbf578ee5	-0.84202415
39	0xbeb26772	-0.34844548
40	0x3e983cc0	0.2973385
41	0x3e5e14e6	0.2168766
42	0xbc51e6ee	-0.012811406
43	0xbf002fe0	-0.5007305
44	0xbf1c1a31	-0.60977465
45	0xbebfe5c0	-0.37479973
46	0xbe76d60f	-0.24105094
47	0x3c86ac69	0.016439633
48	0xbdebda5b	-0.115162574
49	0xbda5cf93	-0.08096232
50	0xbf00bdf0	-0.5028982
51	0xbedaddf3	-0.4274746
52	0xbeed85d8	-0.46391177
53	0xbe06736e	-0.1312997
54	0xbe80ae81	-0.25133136
55	0xbe8dbe13	-0.27684078
56	0x3cdee6db	0.02720969
57	0xbed79427	-0.4210522
58	0xbdfaad60	-0.122401
59	0xbea68bcd	-0.32528535
60	0xbf03a0ea	-0.5141741
61	0xbf5b8531	-0.8575011
62	0xbf0e80c1	-0.5566521
63	0xbeecb7e9	-0.46234062

fc3.weight f4 [2, 64]
0	0xbe8e973b	-0.27849755
1	0xbf458ddb	-0.7716958
2	0xbd822391	-0.0635444
3	0x3fb1adfd	1.3881222
4	0x3e970975	0.29499403
5	0xbfa313f5	-1.2740465
6	0xbfb8f5d7	-1.4450024
7	0xbd3837dd	-0.04497515
8	0x3fc8e941	1.5696183
9	0x4015c3fb	2.3400867
10	0xbe9ff5c4	-0.31242192
11	0x4063fe3a	3.5623918
12	0x3f2e9459	0.6819511
13	0xbf8d7ce2	-1.1053736
14	0xbfff5a8a	-1.9949505
15	0xbd44c959	-0.048043583
16	0x3ef47fab	0.47753653
17	0xbe68592e	-0.2269027
18	0x4005481b	2.082526
19	0x3e80e023	0.25171003
20	0x3f41bc3d	0.75677854
21	0x3fbef29b	1.4917787
22	0x3fb5ee02	1.4213259
23	0xc013b317	-2.3078058
24	0x3ccf0921	0.025272908
25	0xbfcb4218	-1.5879545
26	0xc0bfdf0e	-5.9959784
27	0x3ee828d0	0.45343637
28	0x3ecddb48	0.4020636
29	0x3e63e6ab	0.22255962
30	0xbd7734c2	-0.06035305
31	0xbf89d886	-1.0769203
32	0x40024d14	2.0359545
33	0xbfebc9f6	-1.8421009
34	0x3e01483b	0.1262521
35	0x3e2bf24b	0.16791646
36	0xc09af49d	-4.84236
37	0xbbde9ea6	-0.0067938147
38	0x3e37913b	0.17926495
39	0x4023ce17	2.5594537
40	0x3d543d87	0.05181649
41	0x3f00dbfc	0.5033567
42	0x40199542	2.399735
43	0xbfe154b8	-1.7603979
44	0x3e6b76c4	0.22994524
45	0xbfed02b0	-1.8516445
46	0x3e923b7c	0.28561008
47	0xbe96984a	-0.29413062
48	0xbf0980c8	-0.5371213
49	0x3f467dce	0.7753571
50	0x3fda0624	1.7033124
51	0x3f839faf	1.0283107
52	0xc06aebbc	-3.670638
53	0xbf87744d	-1.0582367
54	0xbf42805c	-0.7597711
55	0xbe866411	-0.2624822
56	0x3d0742e9	0.033022795
57	0x406bec52	3.6862988
58	0x3ffd6cd6	1.9798839
59	0xc01e3682	-2.472077
60	0xbeecd11e	-0.46253294
61	0x403ced08	2.9519672
62	0x3fd3494e	1.6506746
63	0x3ffa1958	1.9538984
64	0xbf3b4dbb	-0.7316548
65	0xbd400d53	-0.046887707
66	0x3f8998ff	1.0749816
67	0x3d042598	0.032262415
68	0xc0491b6e	-3.1422992
69	0x3b822042	0.0039711306
70	0x3e61594a	0.22006717
71	0xbe2dfcc1	-0.16990949
72	0x3e5cef0c	0.21575564
73	0xbe9b2859	-0.3030422
74	0xbff413e7	-1.9068574
75	0xbe01b689	-0.12667288
76	0x3d9c4873	0.07631006
77	0x3f187e29	0.59567505
78	0xbeaf5e21	-0.34251502
79	0xc03ab59f	-2.9173353
80	0xbfecc624	-1.8497968
81	0xc00bc010	-2.1835976
82	0xbf1dd102	-0.61647046
83	0x3e132d06	0.14372644
84	0xbe26f9da	-0.16306248
85	0xbe521959	-0.20517482
86	0xbbe46ce1	-0.006970987
87	0x3ed63647	0.41838285
88	0xc05bb7c3	-3.433091
89	0xbcdff46e	-0.027338233
90	0x3d887bce	0.06664239
91	0xbf0541d2	-0.5205356
92	0x3f443186	0.76638067
93	0x3f8ecdf0	1.1156597
94	0xc0205118	-2.5049496
95	0x3e6132f7	0.21992098
96	0x3e4239f9	0.18967427
97	0x3eae7436	0.34073037
98	0x3f214ce6	0.6300796
99	0x3d346459	0.04404101
100	0xc04f3b59	-3.2379973
101	0x3fc9104e	1.5708101
102	0xc06b52a8	-3.67692
103	0x3e8ddc1e	0.27707
104	0xc01d8d48	-2.4617481
105	0x40081e54	2.126851
106	0x3e0240ca	0.12720028
107	0x3e7e5b2b	0.24839465
108	0x3fadbaa9	1.3572589
109	0x3f7ea87d	0.9947584
110	0x3f95915d	1.1684986
111	0x3e212c24	0.15739495
112	0xbdcbcc0d	-0.09951029
113	0xbe7621b1	-0.2403629
114	0x4006d74a	2.1068902
115	0x3fa26d81	1.2689668
116	0xbc065c2f	-0.008200689
117	0xbf9f1bd9	-1.2430373
118	0x3e8b7189	0.27235058
119	0x3e73ce37	0.23809133
120	0xc0241a70	-2.5641136
121	0x3eecc442	0.46243483
122	0xbebea898	-0.37238002
123	0xc00c94bb	-2.1965778
124	0xbf6f9181	-0.93581396
125	0x3efc21f0	0.49244642
126	0x3e271f18	0.16320455
127	0xbd0ca282	-0.034334667

fc3.bias f4 [2]
0	0x3ce05ac7	0.027387036
1	0xbdfba201	-0.12286759
