checkpoint_critic-4.pth (torch_old, 537912 bytes, 13 tensors)

fcs1.weight f4 [400, 24]
0	0xbe3a7416	-0.18208346
1	0x3da801a5	0.08203439
2	0xbc17ed61	-0.009272904
3	0x3f054dea	0.5207201
4	0xbe620613	-0.2207263
5	0x3eec90e5	0.46204296
6	0xbd28173c	-0.041037783
7	0x3f0569d0	0.5211458
8	0x3e011daa	0.12608972
9	0x3ebd6e6f	0.36998317
10	0xbce9df60	-0.028548896
11	0x3f2f6909	0.68519646
12	0x3ef50c38	0.47860885
13	0x3f9f0980	1.2424774
14	0x3b47794a	0.0030437284
15	0x3f3256e0	0.6966381
16	0x3e89a835	0.26886144
17	0x3e7a0243	0.24414925
18	0xbd34e32c	-0.04416196
19	0xbe03f723	-0.12887244
20	0x3f8cc8b2	1.0998747
21	0x401fdc8d	2.4978364
22	0xbde891a5	-0.113559045
23	0xbde02a83	-0.109456085
24	0x3e169e39	0.14708795
25	0xbf3800db	-0.71876305
26	0xbc83f890	-0.016109735
27	0x3e99598f	0.2995114
28	0x3fbaa480	1.4581451
29	0x402ad9e9	2.6695502
30	0x3c1b65f7	0.0094847595
31	0x3e96d429	0.2945874
32	0xbe794d47	-0.24345885
33	0xbf427758	-0.75963354
34	0xbba10b02	-0.0049146423
35	0x3c9ff94a	0.01952805
36	0x3f5b88af	0.8575544
37	0x3fc1dce9	1.5145541
38	0x3c93024d	0.017945433
39	0xbbf4a1d0	-0.0074655786
40	0xbe3e5111	-0.18585612
41	0xbf2055a0	-0.62630653
42	0x3c9973a5	0.018731901
43	0x3db6cfd9	0.089263625
44	0xbe8409cd	-0.25788727
45	0xbec6a317	-0.38796303
46	0xbc8caef5	-0.01717327
47	0x3bf812e9	0.0075706136
48	0x3dfbe0e6	0.12298755
49	0x3fda856a	1.7071965
50	0xbbbc26d0	-0.0057419315
51	0x3e02ac4e	0.12761042
52	0xbec6eb60	-0.38851452
53	0xbfdf8d9e	-1.7465093
54	0x3b9f73b8	0.0048660897
55	0x3deba6cd	0.11506424
56	0xbed5fc2f	-0.41793963
57	0x3faf1fd6	1.368159
58	0x3d4ea1dd	0.050447334
59	0xbe498afb	-0.19681923
60	0x3a8eb99e	0.0010889058
61	0xbef8c3d7	-0.48586914
62	0x3d3c2644	0.04593493
63	0xbe7da949	-0.24771608
64	0xbfb1b6cd	-1.3883911
65	0x3fa42af1	1.2825605
66	0xbe0e53d4	-0.13899165
67	0x3e9015a6	0.28141516
68	0x3e12e281	0.14344217
69	0xbfb55f3a	-1.4169686
70	0xbe646a9e	-0.22306296
71	0x3e84b169	0.25916603
72	0x3e265574	0.16243535
73	0x3e8e3be3	0.27780065
74	0x3e8235af	0.25431582
75	0xbc347c16	-0.0110159125
76	0x3d17654b	0.036961835
77	0xbf593a86	-0.84854925
78	0x3e96e14b	0.2946876
79	0xbd24ba99	-0.040217016
80	0xbc19dacd	-0.009390545
81	0x3da81cfe	0.08208655
82	0xbd3dfbda	-0.046382762
83	0xbf8f37b2	-1.1188872
84	0x3cc8e148	0.024521485
85	0xbff6edb9	-1.9291297
86	0xbde321b5	-0.110904135
87	0xbf8f6826	-1.1203659
88	0x3f6524c0	0.895092
89	0xbf08fa1f	-0.53506655
90	0xbde1106a	-0.10989459
91	0xbe188256	-0.14893469
92	0xbe989edc	-0.298087
93	0xbfffdb68	-1.9988832
94	0xbdc58a6d	-0.09645543
95	0xbe5174b0	-0.20454669
96	0xbeff17a9	-0.4982274
97	0x3f0ff9b9	0.5624042
98	0xbddd68c0	-0.10810995
99	0xbd7f90a3	-0.062393796
100	0x3ddaaa2a	0.106769875
101	0xbf9c92f6	-1.2232349
102	0xbe1e5d95	-0.15465386
103	0xbdcb9480	-0.099404335
104	0xbf33487c	-0.7003248
105	0x3ef24440	0.47317696
106	0x3f1c785a	0.6112114
107	0x3e209609	0.15682234
108	0x3dbed86d	0.09318624
109	0xbf5de35d	-0.86675054
110	0x3f2104ec	0.62898135
111	0x3e3b7de1	0.18309738
112	0xbf1202d1	-0.5703555
113	0x3f1039ca	0.5633818
114	0x3d8e69ce	0.069537744
115	0x3cf3d2f2	0.029763673
116	0x3ef9c818	0.48785472
117	0xbfbb5851	-1.4636327
118	0x3dd17ab8	0.10228485
119	0x3d7ebf7d	0.062194336
120	0xbbfc9ccd	-0.007709122
121	0xbe90df95	-0.2829558
122	0x3cd819e7	0.026379539
123	0xbd15206a	-0.036407866
124	0x3f379828	0.71716547
125	0x3f656837	0.89612144
126	0xbcc83743	-0.024440413
127	0x3d2cddf0	0.042203844
128	0x3bf17c60	0.007369563
129	0xbb803f97	-0.0039138305
130	0xbcc79d56	-0.024367016
131	0x3d04a072	0.032379575
132	0x3ef38e47	0.47569486
133	0x3eb81b61	0.35958388
134	0x3cd229d1	0.025654705
135	0xbd261f26	-0.04055705
136	0xbc6d6f64	-0.01449189
137	0x3e88572c	0.26629007
138	0xbb74a2fe	-0.0037328596
139	0x3cafee62	0.021475974
140	0xbfb36737	-1.4015874
141	0xbfb3f7b9	-1.4059974
142	0x3c342f36	0.010997584
143	0x3cc56927	0.024097992
144	0xbe205a1e	-0.15659377
145	0xbf0d23e2	-0.5513288
146	0x3e0a946e	0.13533184
147	0xbd185cc2	-0.037197836
148	0x3e184bf8	0.1487273
149	0xc02f8f79	-2.7431319
150	0x3e42d1fd	0.19025417
151	0xbdac8f4f	-0.084257714
152	0x3d2c88ef	0.042122778
153	0xbf48fabb	-0.78507584
154	0xbe251a06	-0.16123208
155	0xbe9c458b	-0.30521807
156	0xbc9bf036	-0.01903544
157	0xc01e280c	-2.4711943
158	0xbde74924	-0.11293247
159	0xbeab146b	-0.33414015
160	0x3daf40c4	0.08557275
161	0xbf6d2c18	-0.92645407
162	0xba255d0b	-0.0006308115
163	0xbbf4a23f	-0.0074656303
164	0xbea970ab	-0.3309377
165	0xbfff8875	-1.9963518
166	0x3ce779ac	0.02825626
167	0x3c95f436	0.018304925
168	0xbf4e9657	-0.8069815
169	0x3e6815e3	0.22664599
170	0x3d17b711	0.03703982
171	0x3ee941b2	0.45557934
172	0xbe796785	-0.24355896
173	0x3f47a434	0.7798493
174	0x3d5ff6d0	0.054678738
175	0x3ef4f866	0.47845763
176	0xbf7954d1	-0.97395045
177	0x3e44978a	0.19198433
178	0xbe0f2e16	-0.13982424
179	0xbcf225e5	-0.029559085
180	0x3eab5cf8	0.33469367
181	0xbec68e20	-0.38780308
182	0xbe1ad7fd	-0.15121455
183	0xbc8c2198	-0.017105862
184	0xbf2c2f69	-0.6725984
185	0x3e12bf8f	0.14330886
186	0x3eaf201d	0.34204188
187	0xbece39b1	-0.4027839
188	0x3f53d2e2	0.82743657
189	0xbf87c16c	-1.0605903
190	0x3eab3ee8	0.3344643
191	0xbebbc54d	-0.36673966
192	0x3ea31af7	0.3185651
193	0xbf69dfc6	-0.91357076
194	0xbd04df6f	-0.032439645
195	0x3dfdb833	0.12388649
196	0x3f4da467	0.80328983
197	0x3e063962	0.13107827
198	0xbbe7cc55	-0.007073919
199	0x3db3893a	0.08766408
200	0xbe935d93	-0.2878233
201	0xbfb40326	-1.4063461
202	0x3a2dc898	0.0006629317
203	0x3d9c94d3	0.076455735
204	0x3fa9d48f	1.3267993
205	0x3ef8ca05	0.4859163
206	0x3d0d6972	0.03452439
207	0x3ded5a5b	0.115894996
208	0xbf055885	-0.52088195
209	0xbfcf2fbc	-1.6186442
210	0x3c22adf6	0.009929171
211	0x3cc65e5f	0.024214922
212	0x40050c47	2.0788743
213	0x3f87b590	1.0602283
214	0x3b0f7d51	0.0021894763
215	0x3d95098c	0.072772115
216	0xbf281c44	-0.6566813
217	0xbfae25be	-1.3605268
218	0xbd4f7949	-0.050652776
219	0xbea58ded	-0.32334843
220	0xbe92a8f5	-0.2864453
221	0x3e9e3738	0.30901504
222	0x3c922125	0.01783807
223	0xbea6c9b7	-0.3257577
224	0xbe1548d4	-0.14578563
225	0xbfc10436	-1.507941
226	0x3d3cbe71	0.046080057
227	0xbf292b1d	-0.6608141
228	0x3ecf837c	0.40530002
229	0x3da00cc5	0.078149356
230	0x3d8fc93b	0.070208035
231	0xbf350f7d	-0.7072676
232	0xbef1ca02	-0.47224432
233	0xbfd3ec35	-1.655646
234	0x3ee077d4	0.43841422
235	0x3f114cff	0.5675811
236	0x3f8b3815	1.087649
237	0x3d9d3428	0.07675964
238	0x3ee084d6	0.43851346
239	0x3f15ac29	0.5846582
240	0x3f24f09b	0.64429635
241	0xbeed93e8	-0.46401906
242	0x3c596280	0.013268113
243	0xbe8e136b	-0.2774919
244	0xbdc8e7a7	-0.09809809
245	0xbe092576	-0.13393196
246	0xbd1ed837	-0.038780417
247	0xbe9f0e74	-0.31065714
248	0x3e5e635d	0.21717592
249	0xbf08951a	-0.5335251
250	0xbd0f96d3	-0.035055947
251	0x3e2ee87a	0.1708087
252	0x3c349990	0.01102294
253	0xbff5fdac	-1.921804
254	0xbd436187	-0.04770043
255	0x3e775e7b	0.24157135

fcs1.bias f4 [400]
0	0x3daa981f	0.08329796
1	0x3c92eed2	0.017936144
2	0xbe38f0aa	-0.18060556
3	0xbd970c18	-0.073753536
4	0x3e05d193	0.13068227
5	0x3dea4ab1	0.114400275
6	0x3d90f49e	0.07077907
7	0x3e3ce679	0.18447293
8	0xbdd95fcf	-0.10613977
9	0xbd642e32	-0.055708118
10	0xbc9f2abe	-0.01942956
11	0x3d59e718	0.053198904
12	0x3e386e32	0.18010786
13	0xbe46d00c	-0.19415301
14	0x3d1ca0c3	0.03823925
15	0x3e4fe23c	0.20301145
16	0xbddb1e90	-0.10699189
17	0x3e25d7e0	0.16195631
18	0xbe370750	-0.17873883
19	0x3d0f5780	0.034995556
20	0xbdf5e392	-0.12006296
21	0x3d8c27f6	0.068435594
22	0x3d41b398	0.047290415
23	0x3d2a3691	0.041555945
24	0xbd2e1e91	-0.04250962
25	0xbd7b316f	-0.06132644
26	0xbe4b4144	-0.19849116
27	0x3d0f9f13	0.035063814
28	0x3e3f0b6b	0.186567
29	0xbe564e63	-0.2092834
30	0xbdac83ec	-0.084235996
31	0x3d61abf5	0.05509563
32	0x3dd589b7	0.10426658
33	0x3d90723e	0.0705304
34	0x3e092099	0.13391341
35	0x3aa6f12f	0.0012736673
36	0xbd711735	-0.058860023
37	0xbe2e3d47	-0.17015563
38	0xbe5aa586	-0.21352205
39	0xbe2037f0	-0.15646338
40	0x3dd0332f	0.101660125
41	0x3e3b333e	0.18281266
42	0x3e3d7c2d	0.185044
43	0x3e1c8499	0.15284957
44	0x3bbe9484	0.0058160443
45	0x3e1069d4	0.1410287
46	0x3dbc7287	0.09201532
47	0xbe0c3a74	-0.13694173
48	0xbdc2d764	-0.09513739
49	0xbe410585	-0.18849762
50	0x3e3165c0	0.17323971
51	0x3d24f425	0.040271897
52	0x3e3f6d0a	0.18693939
53	0xbcf69226	-0.030098986
54	0x3e24be48	0.16088212
55	0x3d86162e	0.06547199
56	0xbccda0c9	-0.025101082
57	0xbc333706	-0.010938412
58	0x3e11ac0b	0.14225785
59	0xbcaca0fa	-0.021072853
60	0x3e21b724	0.15792519
61	0x3d36de19	0.044645403
62	0xbda05560	-0.07828784
63	0xbdbec26f	-0.09314429
64	0xbdca7b0b	-0.0988675
65	0x3dffcf0b	0.12490662
66	0x3e1ed649	0.15511431
67	0xbdc3e392	-0.0956489
68	0xbe40b395	-0.18818505
69	0x3df6bc26	0.12047605
70	0xbd462097	-0.048370924
71	0xbe40521f	-0.18781327
72	0x3d2da912	0.042397566
73	0xbca9d08c	-0.020729326
74	0x3e1829bf	0.14859675
75	0x3d338429	0.04382721
76	0xbdfb7bfd	-0.12279508
77	0xbd20fb0c	-0.039301917
78	0xbe16a0fe	-0.14709851
79	0x3dc4656c	0.09589657
80	0x3d7d18f2	0.061791368
81	0x3df57f35	0.119871534
82	0xbe19daeb	-0.15024917
83	0xbde3090f	-0.11085712
84	0xbdfead58	-0.124354064
85	0xbe2bc5cd	-0.16774674
86	0xbdfdaca1	-0.12386442
87	0xbe26c2c9	-0.16285242
88	0x3e0fa87d	0.14029117
89	0xbd7bb478	-0.061451405
90	0xbd2b3ecd	-0.04180794
91	0x3d8139b2	0.06309833
92	0x3d378dff	0.044813152
93	0x3dbb76e9	0.0915354
94	0xbe087498	-0.13325727
95	0x3e44a119	0.19202079
96	0xbcc86dfc	-0.024466507
97	0xbdbc9b9f	-0.0920937
98	0x3e130eb1	0.14361073
99	0xbde85130	-0.1134361
100	0xbe0333db	-0.1281275
101	0x3dead5ac	0.11466536
102	0x3d566468	0.05234185
103	0xbda60bcc	-0.08107719
104	0xbc87d2ac	-0.016579948
105	0xbd361dcb	-0.044462007
106	0x3dbb3ded	0.09142671
107	0x3d287196	0.04112395
108	0x3d971c91	0.073784955
109	0x3e382947	0.17984496
110	0xbe0ed292	-0.13947514
111	0xbe20e436	-0.15712056
112	0xbd449154	-0.04799016
113	0xbdd6a1f5	-0.104801096
114	0xbe14ae7c	-0.14519686
115	0x3e3ba9f8	0.18326557
116	0x3e2f9bc0	0.17149258
117	0x3e2c16d0	0.16805577
118	0xbe15fdde	-0.14647624
119	0xbcd736db	-0.026271274
120	0xbe200e6c	-0.15630502
121	0xbd99b3fc	-0.075050324
122	0x3e2a5419	0.16633643
123	0x3d3bf227	0.04588523
124	0x3d9710c3	0.07376244
125	0xbe519174	-0.20465642
126	0x3dc1b9db	0.09459277
127	0x3e0d48cb	0.137973
128	0xbda31eb3	-0.0796484
129	0x3dcd5cea	0.100274876
130	0x3dbb206b	0.091370426
131	0xbe1eb519	-0.15498771
132	0xbe1c17e2	-0.15243486
133	0x3b3ad705	0.002850951
134	0xbe4a1f20	-0.19738436
135	0xbe1394ac	-0.14412183
136	0x3def5a0d	0.11687098
137	0xbd8c8dfe	-0.0686302
138	0xbc6aaff9	-0.014324182
139	0xbda900ad	-0.08252082
140	0x3e06c4cd	0.13161011
141	0x3e2ac12b	0.1667525
142	0x3e16e866	0.1473709
143	0xbe4090b8	-0.18805206
144	0xbd9e051f	-0.077158205
145	0x3da9848b	0.08277234
146	0x3dfc2abd	0.12312839
147	0xbd3bce3a	-0.04585097
148	0x3de4c6ae	0.11170708
149	0xbbff2de9	-0.0077874553
150	0x3ce3b8ba	0.027798045
151	0x3e0ac737	0.13552557
152	0x3e0fbdd9	0.14037265
153	0xbe234fc0	-0.15948391
154	0xbdfc3b42	-0.1231599
155	0x3d996f3d	0.0749192
156	0x3e021284	0.12702376
157	0xbd454cac	-0.048168823
158	0x3e339ba3	0.1753984
159	0xbcb97061	-0.022636594
160	0xbdd29f0c	-0.10284242
161	0xbc98f7cb	-0.018672844
162	0xbe349104	-0.17633444
163	0x3d7cafd4	0.06169112
164	0xbe403e24	-0.18773705
165	0x3e594277	0.2121676
166	0xbe1421af	-0.14465974
167	0x3e07ccaa	0.13261667
168	0xbe1684d2	-0.14699104
169	0xbcf059aa	-0.02933963
170	0xbde6b8b8	-0.11265701
171	0x3df47815	0.11936966
172	0x3decdefe	0.1156597
173	0xbe51f4e4	-0.20503575
174	0xbe37d5a9	-0.17952599
175	0x3c48d52c	0.012257855
176	0xbc1053e1	-0.008809061
177	0x3cc4a5dc	0.02400487
178	0x3d821992	0.063525334
179	0xbd0e290b	-0.03470711
180	0x3e331ff9	0.17492665
181	0x3c73edf3	0.0148882745
182	0xbdbff3c8	-0.093726695
183	0x3d827ff6	0.06372063
184	0xbe273732	-0.16329649
185	0xbdc95b98	-0.09831923
186	0x3d3112a5	0.04323067
187	0xbdaf3ca0	-0.08556485
188	0xbe3b391f	-0.18283509
189	0x3dbe07c7	0.09278827
190	0x3d57db30	0.052699268
191	0x3d86394a	0.06553896
192	0x3d926257	0.07147663
193	0xbe431565	-0.1905113
194	0xbda7c2d5	-0.08191458
195	0xbe160665	-0.14650877
196	0x3e46169e	0.19344565
197	0xbdb85625	-0.09000806
198	0xbdff36f9	-0.12461657
199	0xbd936fca	-0.071990564
200	0x3cc149e2	0.0235948
201	0x3da6af0c	0.08138856
202	0x3e1a7756	0.15084586
203	0x3e1762ba	0.14783755
204	0x3cd387ba	0.025821555
205	0x3e4272c4	0.18989092
206	0x3de39e8e	0.11114226
207	0x3e08db9d	0.13365026
208	0xbe3377fe	-0.17526242
209	0x3d082c8a	0.0332456
210	0xbd3293a2	-0.043597825
211	0xbe4f7aa2	-0.20261624
212	0xbdc4e5f6	-0.09614174
213	0x3e1867a1	0.14883281
214	0x3d7ca421	0.061679963
215	0x3e3fe7e5	0.18740804
216	0x3e034468	0.12819064
217	0xbbcd30a3	-0.0062619015
218	0x3e4fa6ee	0.20278522
219	0x3d302d0d	0.043011714
220	0xbcfc9e33	-0.030837154
221	0xbdb34866	-0.08754043
222	0x3e034baf	0.1282184
223	0x3dbbad3a	0.091639
224	0x3e0ff435	0.14058001
225	0xbd209619	-0.039205644
226	0xbe50d091	-0.20392062
227	0x3d130a50	0.035898507
228	0x3cb6fe70	0.022338122
229	0xbe0648f7	-0.13113771
230	0x3d46ea1b	0.048563104
231	0xbcff129a	-0.0311368
232	0x3e3a7081	0.1820698
233	0x3c4c12cf	0.012455656
234	0xbdb62849	-0.088944025
235	0x3e163db6	0.14671978
236	0x3bcb4872	0.0062037045
237	0xbd0991eb	-0.033586424
238	0x3dce31cf	0.10068094
239	0x3e504024	0.20336968
240	0x3dbb06ab	0.09132131
241	0xbb9f5f3c	-0.0048636477
242	0x3e21adf9	0.15789022
243	0xbdb6f093	-0.08932605
244	0x3e3bc403	0.18336491
245	0xbdee2f61	-0.116301306
246	0x3c9e2bdd	0.019308025
247	0x3e42b5ac	0.19014615
248	0x3da8f138	0.08249134
249	0xbd34bc5b	-0.044124942
250	0x3de25a6d	0.110524036
251	0x3dfc6016	0.123230144
252	0xbe3d46b6	-0.18484005
253	0xbcfa378e	-0.030544069
254	0xbe2d7a70	-0.16941237
255	0xbd06ae47	-0.032881048

bn1.weight f4 [400]
0	0x3ea0b6ea	0.31389552
1	0x3f0f2c5c	0.5592706
2	0x3ee5495e	0.44782537
3	0x3e90807a	0.2822302
4	0x3eeb1399	0.4591339
5	0x3f19c043	0.60058993
6	0x3e9bf941	0.30463603
7	0x3eaab214	0.33338988
8	0x3eff545d	0.49869052
9	0x3eeca639	0.46220568
10	0x3ef3796c	0.47553575
11	0x3f17d4a8	0.5930886
12	0x3ef78709	0.4834521
13	0x3f091384	0.53545403
14	0x3f10656d	0.56404763
15	0x3e3d9ad4	0.18516093
16	0x3ea4b0ca	0.3216613
17	0x3ea42d6f	0.32065913
18	0x3eb3ec86	0.3514139
19	0x3eb27afd	0.34859458
20	0x3f00b119	0.5027023
21	0x3ea76652	0.32695252
22	0x3eabc6e9	0.33550194
23	0x3ecbfe1a	0.39842302
24	0x3e29f3c8	0.16596901
25	0x3dcd0216	0.100101635
26	0x3f3b55ae	0.7317761
27	0x3eb4eccc	0.35336912
28	0x3f60861f	0.8770465
29	0x3f3517a7	0.70739216
30	0x3e5e523d	0.21711059
31	0x3e6603c7	0.22462378
32	0x3e831918	0.25605083
33	0x3ea52dfb	0.32261643
34	0x3e8d3566	0.27579802
35	0x3ec5fc79	0.38669184
36	0x3f789242	0.9709817
37	0xba570691	-0.00082025776
38	0x3ecb8d42	0.3975621
39	0x3efaf761	0.4901686
40	0x3ecbda17	0.39814827
41	0x3e907440	0.28213692
42	0x3eb66ec2	0.35631377
43	0x3eeaa1c4	0.45826542
44	0x3e3d5211	0.18488337
45	0x3eae321f	0.34022614
46	0x3eb95afe	0.36202234
47	0x3e98e435	0.29861608
48	0x3f86a576	1.0519245
49	0x3eae539e	0.3404817
50	0x3eb2294e	0.34797138
51	0x3f01e498	0.5073943
52	0x3e8d8da4	0.27647126
53	0x3ea5ced5	0.32384363
54	0x3eca556a	0.3951829
55	0x3f1811a8	0.5940194
56	0x3e74705b	0.23870985
57	0x3ef13007	0.47106954
58	0x3e943194	0.28944075
59	0x3efa5ad2	0.48897415
60	0x3ef20f1b	0.4727715
61	0x3df71434	0.120644
62	0x3e487d5f	0.19579075
63	0x3eb38323	0.35060987
64	0x3eeab814	0.45843565
65	0x3eebf3cb	0.46084437
66	0x3ef7c4fe	0.4839248
67	0x3ef5c836	0.4800431
68	0x3f0fb684	0.5613787
69	0x3ed38abe	0.4131679
70	0x3ecd02d4	0.4004122
71	0x3ece47e8	0.40289235
72	0xbeb5632a	-0.3542722
73	0x3ebc1163	0.36732015
74	0x3eefc8c2	0.46832854
75	0x3e9cabac	0.30599725
76	0x3e6012c6	0.21882161
77	0x3f178840	0.59192276
78	0x3e71cdf5	0.23613723
79	0x3e9a6f6c	0.30163133
80	0x3eede8cd	0.46466675
81	0x3f0f8f19	0.56077725
82	0x3e6c0cc4	0.23051745
83	0x3ec289e3	0.37995824
84	0x3e9fdd9a	0.31223756
85	0x3ede4cd3	0.43417987
86	0x3f165a06	0.58731115
87	0x3f2bd82d	0.67126733
88	0x3f3bf26b	0.73416775
89	0x3e463a53	0.19358186
90	0x3ea8c2b3	0.32961044
91	0x3e9e606a	0.30932933
92	0x3ea19d7c	0.31565464
93	0x3eb58919	0.3545616
94	0x3ef99421	0.48745826
95	0x3f3b45d6	0.73153436
96	0x3ee82bc7	0.453459
97	0x3f2b380b	0.6688239
98	0x3ec6715d	0.38758364
99	0x3f2ed80b	0.68298405
100	0x3db6a3e5	0.08917979
101	0x3e56919f	0.20953988
102	0x3ea0c0e3	0.3139716
103	0x3e126c60	0.14299154
104	0x3def1897	0.11674612
105	0x3f39ca08	0.725739
106	0x3eda9126	0.42688864
107	0x3f0581ad	0.52150995
108	0x3ea9f4cb	0.33194575
109	0x3eec585f	0.46161172
110	0x3eb9650d	0.36209908
111	0x3e9eb4dd	0.30997363
112	0x3ea87319	0.32900313
113	0x3f20e2a5	0.6284583
114	0x3f11e582	0.56990826
115	0x3ec6e40f	0.3884587
116	0x3eb58a85	0.35457245
117	0x3ec893f8	0.3917539
118	0x3eb97573	0.3622242
119	0x3e6a4741	0.22878744
120	0x3ed28cba	0.4112299
121	0x3ec77971	0.3895984
122	0x3e2b5f17	0.16735493
123	0x3f026c37	0.5094637
124	0x3e6a153d	0.22859664
125	0x3ec523dd	0.38503924
126	0x3f7e9405	0.9944461
127	0x3f0f5640	0.5599098
128	0x3f0a09c4	0.5392115
129	0x3f3c3b4b	0.73527974
130	0x3ea21319	0.31655195
131	0x3eeca045	0.46216026
132	0x3ea40855	0.32037607
133	0x3e9f05e4	0.31059182
134	0x3e3f7922	0.18698552
135	0x3e87d5ef	0.26530406
136	0x3f09b767	0.53795475
137	0x3e58ac3a	0.21159449
138	0x3ebbdd25	0.36692157
139	0x3ed2dc08	0.41183496
140	0x3eafe80d	0.34356728
141	0x3e2ed30f	0.170727
142	0x3ddfd414	0.109291226
143	0x3eb67b73	0.3564106
144	0x3efa5b37	0.48897716
145	0x3f26b416	0.6511854
146	0x3ee44103	0.4458085
147	0x3eba99ae	0.36445373
148	0x3e8dffb8	0.2773416
149	0x3f2a11c7	0.66433376
150	0x3ee40f0a	0.44542724
151	0x3ee56054	0.44800055
152	0x3ec919cc	0.39277494
153	0x3f3a4fe5	0.7277816
154	0x3e591169	0.21198048
155	0x3e8ff216	0.28114384
156	0x3f3b3f80	0.7314377
157	0x3e9bab33	0.30404052
158	0x3e6ea824	0.23306328
159	0x3eab8415	0.33499208
160	0x3ee7952f	0.45231006
161	0x3ee2b973	0.44282112
162	0x3ed17fbd	0.4091777
163	0x3e696c23	0.22795157
164	0x3e3a5007	0.1819459
165	0x3e94fb1f	0.2909784
166	0x3f03cd3f	0.51485056
167	0x3d86b565	0.06577567
168	0x3f30c6c9	0.6905332
169	0x3dc9e4ea	0.09858115
170	0x3e46d281	0.19416238
171	0x3f78aadd	0.97135717
172	0x3f34b3e8	0.70587015
173	0x3eb70a3b	0.35749993
174	0x3ee8793c	0.45404994
175	0x3e9585a6	0.29203528
176	0x3e9a363e	0.30119509
177	0x3f206783	0.62657946
178	0x3f07bea8	0.53025293
179	0x3e6ccead	0.23125716
180	0x3eb27f32	0.34862667
181	0x3ef8480f	0.48492476
182	0x3eff450f	0.49857375
183	0x3ec58cbd	0.38583937
184	0x3e795844	0.24350077
185	0x3f0496ce	0.5179261
186	0x3e920a10	0.28523302
187	0x3f21f1d4	0.63259625
188	0x3ed07ee7	0.4072182
189	0x3f39aae2	0.7252637
190	0x3ebacbe2	0.36483675
191	0x3f1add60	0.6049404
192	0x3f05cdae	0.5226697
193	0x3eed751f	0.4637842
194	0x3ede2590	0.43388033
195	0x3ecf64e6	0.40506667
196	0x3e1003b2	0.1406391
197	0x3eda1aee	0.4259867
198	0x3efe28f5	0.49640623
199	0x3e96f7f3	0.29486045
200	0x3efe45ce	0.49662632
201	0x3ee0b74e	0.4388985
202	0x3e9602e1	0.2929907
203	0x3ea6f924	0.32611954
204	0x3ed069e5	0.4070579
205	0x3ea32e4d	0.31871262
206	0x3e86b965	0.2631332
207	0x3f694e1f	0.9113483
208	0x3e622df8	0.22087848
209	0x3f0ea3a1	0.5571843
210	0x3ea76223	0.3269206
211	0x3eb2fb64	0.3495742
212	0x3e50072c	0.20315236
213	0x3e800f7f	0.25011823
214	0x3f1e1730	0.6175413
215	0x3dddc08b	0.1082774
216	0x3ea28c57	0.31747696
217	0x3ec8add4	0.3919512
218	0x3f13b06a	0.5769106
219	0x3ef0a888	0.4700358
220	0x3e6fe5aa	0.23427454
221	0x3efd10fd	0.49427024
222	0x3e9a1e72	0.30101353
223	0x3dafe048	0.085877
224	0x3e8f22b2	0.27956158
225	0x3e704601	0.23464204
226	0x3ea63275	0.3246037
227	0x3e82bdf9	0.25535563
228	0xb8de5410	-0.00010601443
229	0x3e8315ab	0.2560247
230	0x3eb8394b	0.3598121
231	0x3f3a86d6	0.72861993
232	0x3eb819ba	0.35957128
233	0x3e0eb5d1	0.13936545
234	0x3ee5bf9b	0.44872746
235	0x3f09fbcc	0.53899837
236	0x3e415f8d	0.18884106
237	0x3e77b1ea	0.24188963
238	0x3ef6a60d	0.48173562
239	0x3ece46e7	0.4028847
240	0x3df39a4c	0.11894664
241	0x3ee658ec	0.44989717
242	0x3eec37bc	0.46136272
243	0x3eac0ad7	0.3360202
244	0x3ed2b79a	0.41155702
245	0x3a29b74e	0.0006474153
246	0x3e8008cf	0.2500672
247	0x3eff33c3	0.4984418
248	0x3ee5a826	0.4485485
249	0x3ea0f887	0.3143961
250	0x3ed23bbc	0.410612
251	0x3e5ca963	0.21548991
252	0x3ee7380c	0.45159948
253	0x3eb9ea34	0.36311495
254	0x3ee7d053	0.45276126
255	0x3f5f29b6	0.8717302

bn1.bias f4 [400]
0	0xbe961cbd	-0.293188
1	0xbf324f1d	-0.6965197
2	0xbf329e3f	-0.69772714
3	0xbef37831	-0.47552636
4	0xbf51ea8b	-0.8199851
5	0x3e544ccc	0.2073242
6	0xbef5623e	-0.47926515
7	0xbef44e00	-0.4771576
8	0xbf49792e	-0.7870053
9	0xbf3c7225	-0.7361167
10	0xbf4fe7f7	-0.81213325
11	0xbf87e4d9	-1.0616714
12	0xbd8ec621	-0.06971384
13	0xbf1cbb38	-0.61223173
14	0xbf12a824	-0.5728781
15	0xbe2d2766	-0.1690956
16	0xbe3e84d7	-0.18605362
17	0xbf2306a6	-0.6368202
18	0xbee16b20	-0.44027042
19	0xbf1095cf	-0.5647859
20	0xbf7b3911	-0.9813395
21	0xbec21d53	-0.37912998
22	0xbf0b2bc9	-0.54363686
23	0xbe429e6d	-0.19005747
24	0xbe27fbf8	-0.16404712
25	0xbd83ce15	-0.064357914
26	0xbf20a503	-0.6275179
27	0xbf1fa7f1	-0.62365633
28	0xbe1880d3	-0.14892893
29	0xbf68bfae	-0.9091748
30	0xbe4c2830	-0.19937205
31	0xbe83e63e	-0.25761598
32	0xbecce76d	-0.40020314
33	0xbf19a608	-0.6001897
34	0xbe8d2666	-0.27568358
35	0xbf3d0f23	-0.7385122
36	0xbf8f5061	-1.1196405
37	0xbd4ef3ed	-0.050525595
38	0xbed6e5ab	-0.41972098
39	0xbee10361	-0.4394789
40	0xbeb0100e	-0.3438725
41	0xbeeaab9c	-0.45834053
42	0xbed85cb8	-0.4225824
43	0xbf770d7f	-0.9650497
44	0xbe6ee4a5	-0.23329408
45	0xbea2ec02	-0.31820685
46	0xbf425049	-0.75903755
47	0xbeef7114	-0.4676596
48	0xbe9f0b81	-0.31063464
49	0xbf0213c6	-0.5081142
50	0xbf39fe9d	-0.72654134
51	0xbf398943	-0.7247507
52	0xbf0cdc37	-0.5502352
53	0xbf308288	-0.68949175
54	0xbeb8d0a7	-0.3609669
55	0xbede0db0	-0.43369818
56	0xbec47418	-0.38369823
57	0xbf32a7de	-0.69787395
58	0xbe809845	-0.25116172
59	0xbf2dec69	-0.6793886
60	0xbf2e53dc	-0.6809671
61	0xbd93143f	-0.07181596
62	0xbe4e9a7a	-0.20176116
63	0xbf2613ad	-0.6487377
64	0xbf44cd9e	-0.76876247
65	0xbf24fd87	-0.6444935
66	0xbefce460	-0.49392986
67	0xbf367edc	-0.7128732
68	0xbf2e5fc6	-0.6811489
69	0xbf56cd8b	-0.83907384
70	0xbf430bc9	-0.7618986
71	0xbf30e467	-0.69098514
72	0xbf15b47d	-0.5847853
73	0xbe9c337f	-0.30508038
74	0xbf0e5bf8	-0.55609083
75	0xbec855af	-0.3912787
76	0xbea65159	-0.32483938
77	0xbf5428d9	-0.8287483
78	0xbed42eef	-0.41442057
79	0xbf0eb637	-0.5574679
80	0xbf215352	-0.6301776
81	0xbe339559	-0.1753744
82	0xbeef789c	-0.46771705
83	0xbf57f532	-0.84358513
84	0xbf02d609	-0.5110784
85	0xbf08cc50	-0.53436756
86	0xbd85bda4	-0.06530312
87	0xbf1e6c04	-0.6188357
88	0xbf2cc385	-0.6748584
89	0xbe926d00	-0.28598785
90	0xbedfca66	-0.43709105
91	0xbe8df339	-0.27724627
92	0xbe993e20	-0.2993021
93	0xbf0b7b84	-0.54485345
94	0xbf07d241	-0.53055197
95	0xbf3c4f20	-0.73558235
96	0xbf22f23a	-0.6365086
97	0xbec7e6f5	-0.39043394
98	0xbf119fac	-0.56884265
99	0xbed12610	-0.40849352
100	0xbc86b352	-0.016442928
101	0xbe8b672c	-0.2722715
102	0xbecbd9d0	-0.39814615
103	0xbdecc891	-0.115616925
104	0xbd15eff7	-0.0366058
105	0xbf39e553	-0.72615546
106	0xbf51e7bb	-0.8199422
107	0xbf5561eb	-0.83352536
108	0xbf136f6a	-0.5759188
109	0xbf45bf52	-0.77245057
110	0xbf3152f1	-0.69267184
111	0xbf02e060	-0.5112362
112	0xbef2b277	-0.47401783
113	0xbf3fccaf	-0.749217
114	0xbf374945	-0.71596175
115	0xbeb8b2c9	-0.36073902
116	0xbf0e00fa	-0.5547024
117	0xbf20c0cf	-0.627942
118	0xbeab12ee	-0.3341288
119	0xbdf02d4f	-0.11727392
120	0xbf00238f	-0.5005426
121	0xbeef9604	-0.4679414
122	0xbea72bc6	-0.32650584
123	0x3f1927ad	0.59826165
124	0xbebac307	-0.3647692
125	0xbf34a953	-0.7057087
126	0xbf429d24	-0.7602103
127	0xbf3b122d	-0.7307461
128	0xbf01f7ad	-0.5076855
129	0xbf77dbd0	-0.9681978
130	0xbefc109c	-0.49231422
131	0xbeb394c4	-0.35074437
132	0xbea4d96e	-0.32197136
133	0xbe9b26c4	-0.30303013
134	0xbe0c062d	-0.13674231
135	0xbf00e1de	-0.50344646
136	0xbdd39e97	-0.10332983
137	0xbe8d6774	-0.2761799
138	0xbf2c5607	-0.6731877
139	0xbf477a65	-0.77921134
140	0xbf158466	-0.5840515
141	0xbe78ab5c	-0.24284118
142	0xbdf0ed4c	-0.11764011
143	0xbf290972	-0.6603004
144	0xbf624dba	-0.8839985
145	0xbf667321	-0.9001942
146	0xbf1cf16d	-0.61305887
147	0xbf0c7fa2	-0.5488225
148	0xbed6b7f3	-0.41937217
149	0xbf1560b6	-0.58350694
150	0xbf2e7139	-0.68141514
151	0xbf04f0c9	-0.5192991
152	0xbf272636	-0.6529268
153	0xbf3dbca1	-0.7411595
154	0xbe80b1ad	-0.25135556
155	0xbecc0207	-0.39845297
156	0xbf19c166	-0.6006073
157	0xbed5fa9a	-0.41792756
158	0xbdbea8ba	-0.09309526
159	0xbf19019a	-0.5976807
160	0xbf201482	-0.6253129
161	0xbf37d244	-0.71805215
162	0xbf2f4f08	-0.6847997
163	0xbee8f0b0	-0.4549613
164	0xbe512bef	-0.20426916
165	0x3e9be135	0.30445257
166	0xbf2bb9f4	-0.67080617
167	0xbcab0333	-0.020875549
168	0xbdd012ee	-0.101598606
169	0xbccfe27a	-0.025376547
170	0xbe8074f2	-0.25089222
171	0xbeab79de	-0.33491415
172	0xbf7a0e66	-0.9767822
173	0xbe81f58f	-0.2538266
174	0xbf8965c2	-1.0734179
175	0xbe80e4db	-0.25174603
176	0xbec46049	-0.3835471
177	0xbf122b00	-0.5709686
178	0xbf2d599d	-0.67714864
179	0xbe790e1f	-0.24321793
180	0xbf0e6162	-0.55617344
181	0xbf4057fc	-0.75134254
182	0xbf631f24	-0.8871939
183	0xbf10d672	-0.5657722
184	0xbeb7899e	-0.3584718
185	0xbed53067	-0.4163849
186	0xbe82ea2a	-0.25569278
187	0xbf423cd4	-0.75874066
188	0xbf358f20	-0.70921516
189	0xbebcb5c8	-0.36857438
190	0xbf0f3b84	-0.5595019
191	0xbf5fe637	-0.87460655
192	0xbeeb2667	-0.45927736
193	0xbecec17b	-0.4038199
194	0xbf4b3a74	-0.7938607
195	0xbee12c47	-0.43979093
196	0xbe18376e	-0.14864895
197	0xbeed0a16	-0.46296757
198	0xbf35de78	-0.71042585
199	0xbf126d63	-0.5719816
200	0xbf81bab1	-1.0135099
201	0xbf1959e6	-0.599028
202	0xbf07c9a9	-0.53042084
203	0xbf16dc1a	-0.589296
204	0xbf0f0562	-0.5586759
205	0xbe64aada	-0.223308
206	0xbe5ba03a	-0.2144784
207	0xbe4e2b59	-0.20133723
208	0xbeb0a75b	-0.34502682
209	0xbf6125de	-0.87948406
210	0xbed678b3	-0.4188896
211	0xbf0ad5a3	-0.54232234
212	0xbe66c4ba	-0.22535983
213	0xbebd7133	-0.37000427
214	0xbf0f53fe	-0.55987537
215	0xbde7ddbf	-0.113215916
216	0xbf346753	-0.7047016
217	0xbf2a3589	-0.6648794
218	0xbf2f3480	-0.68439484
219	0xbf1d3a60	-0.614172
220	0xbec9cb35	-0.39412847
221	0xbeef5ac1	-0.46748927
222	0xbea46110	-0.32105303
223	0x3c89ef4d	0.01683774
224	0xbee4e3a4	-0.44704926
225	0xbee6f479	-0.45108393
226	0xbec243c1	-0.37942317
227	0xbe473456	-0.19453558
228	0xbc8236e5	-0.015895316
229	0xbec5036b	-0.3847917
230	0xbf0f815a	-0.5605675
231	0x3dcbbf20	0.099485636
232	0xbe8cc787	-0.27495977
233	0xbe371cb9	-0.1788205
234	0xbf118606	-0.5684513
235	0xbeae1060	-0.33996868
236	0xbe3934e8	-0.18086588
237	0xbe745cc4	-0.23863512
238	0xbf1e37d4	-0.61803937
239	0xbf2a517f	-0.66530603
240	0x3c96005c	0.018310718
241	0xbf261d4f	-0.6488847
242	0xbf17182e	-0.5902127
243	0xbf1f7274	-0.62284017
244	0xbf2391da	-0.63894427
245	0xbba2d031	-0.004968666
246	0xbec57863	-0.3856841
247	0xbf60e605	-0.8785098
248	0xbf46de93	-0.7768337
249	0xbf02588d	-0.5091637
250	0xbf4bc48b	-0.79596776
251	0xbdddacf9	-0.108240075
252	0xbf987636	-1.1911075
253	0xbebed419	-0.37271193
254	0xbec9760f	-0.39347884
255	0xbef72d73	-0.48276863

bn1.running_mean f4 [400]
0	0x408e365b	4.444135
1	0x4140d467	12.051856
2	0xc07c1daa	-3.9393106
3	0xc16b7ecb	-14.718455
4	0x40d82b3f	6.755279
5	0x3cdb0320	0.026734889
6	0xc11bfcec	-9.7492485
7	0x417aa792	15.665911
8	0x413b688c	11.713024
9	0x419d0c8f	19.631132
10	0xc101833d	-8.094541
11	0xc136b506	-11.419195
12	0x40375ff3	2.8652313
13	0xc0a50e52	-5.157998
14	0x40c6b90a	6.210088
15	0xc1aaf595	-21.369913
16	0x418162b7	16.1732
17	0x40686e62	3.6317372
18	0x40829f9a	4.0819826
19	0x412cc6db	10.798549
20	0xbf4f7b80	-0.8104782
21	0xc077e0ad	-3.8730881
22	0xc0dfbf8c	-6.992132
23	0x417cabfa	15.791986
24	0x417426eb	15.259501
25	0x416d9d9b	14.850978
26	0xbe886e2e	-0.2664656
27	0xbfe2030c	-1.765718
28	0x3f7d5451	0.9895678
29	0xc1984f85	-19.038828
30	0x414b39cb	12.70161
31	0x40abdbda	5.3705873
32	0xc017e77b	-2.3735034
33	0x3d8dd1ed	0.06924806
34	0x418ad809	17.355486
35	0xc107f4da	-8.497278
36	0x3fa5ecb4	1.2962861
37	0xc018d785	-2.3881543
38	0x40e396d2	7.1121607
39	0xc17eb31d	-15.918729
40	0xbf995d64	-1.1981626
41	0xc093ee6b	-4.6228538
42	0x403197b5	2.7748845
43	0xc0cfb703	-6.4910903
44	0xc17ed98e	-15.928114
45	0x40938642	4.610139
46	0xc186aecb	-16.835348
47	0xc143ebbd	-12.245053
48	0x3dc7522d	0.09732471
49	0xc0420a3d	-3.031875
50	0xc1af1d66	-21.889355
51	0xc0b3e2f7	-5.6214557
52	0xc0911733	-4.534082
53	0xc1458be1	-12.34665
54	0x413ed868	11.927834
55	0xc05f01e8	-3.4844913
56	0xbf5b13f5	-0.85577327
57	0xbe80d423	-0.25161847
58	0x40d35b5f	6.6049037
59	0x415b4220	13.703644
60	0x415861be	13.523863
61	0x41e2e0ac	28.359703
62	0x40ad6d4e	5.419593
63	0xbfe87d97	-1.8163327
64	0x4176b125	15.418248
65	0xc02bab35	-2.6823246
66	0x40af6067	5.480518
67	0xc1430eea	-12.191141
68	0x40b00c2b	5.5014853
69	0xc028d925	-2.6382535
70	0x4028c2d8	2.6368923
71	0xc07488cc	-3.8208494
72	0x3ffe8d07	1.9886788
73	0x41814d81	16.162844
74	0x418dd09c	17.72686
75	0xc07c78d1	-3.944874
76	0x409e2e9b	4.943189
77	0x4100d588	8.052132
78	0x411b55dc	9.708462
79	0xc177891c	-15.470974
80	0xc169b271	-14.606065
81	0x4121e905	10.11939
82	0xc183b5d3	-16.463781
83	0xc0b131c3	-5.5373244
84	0x400d8d94	2.2117662
85	0x3f37eb47	0.7184338
86	0xbe30637a	-0.17225447
87	0x3f691660	0.91049767
88	0x40025a8d	2.0367768
89	0x407ec1ed	3.9805863
90	0x40f84096	7.757884
91	0x40b238a8	5.569416
92	0xc05036c1	-3.253342
93	0xc04e084d	-3.2192566
94	0x412d5a3c	10.83453
95	0x410bcb95	8.737203
96	0x414f6e82	12.964479
97	0x3fa5a8d6	1.294215
98	0x416cf6a3	14.810214
99	0x3ff6038f	1.9219836
100	0xc1bef68b	-23.870382
101	0x4154a347	13.289863
102	0xc1794d1a	-15.581324
103	0xc0a83799	-5.256787
104	0x414b8882	12.720827
105	0x40805de4	4.0114613
106	0x4187a651	16.95621
107	0x416d9b56	14.850424
108	0x41946930	18.551361
109	0xc141afc4	-12.105412
110	0xc115da76	-9.365835
111	0xc0832cea	-4.0992327
112	0x419df8ce	19.746487
113	0x3fd292d9	1.6451064
114	0x401e5a3a	2.474257
115	0x40ac2e51	5.380654
116	0x41517b17	13.092551
117	0x3f0967b2	0.5367385
118	0xc1833b11	-16.403841
119	0x41a25670	20.292206
120	0x40535fbb	3.302718
121	0x419facf5	19.959452
122	0xc1abb84e	-21.464993
123	0xbdc601cf	-0.09668314
124	0x419c816f	19.5632
125	0x40bab1bd	5.8341966
126	0x4112da8b	9.178355
127	0x3f3a99cc	0.72890925
128	0x40f5ef41	7.685456
129	0xc175976d	-15.349469
130	0x4194a04d	18.578272
131	0x3fbf9a5a	1.4968979
132	0x417e3b7f	15.889525
133	0x40ffeda5	7.9977593
134	0xc04259d2	-3.0367322
135	0x41179c1c	9.475613
136	0x400ec359	2.230673
137	0xc12d5f1e	-10.835722
138	0xbfd8a807	-1.6926278
139	0xc10cd9f1	-8.803208
140	0x3fb566cd	1.4171997
141	0xc1bdbe45	-23.717905
142	0xc0744974	-3.8169832
143	0x41458633	12.3452635
144	0x41a96a00	21.176758
145	0xc1abfe08	-21.499039
146	0x41b49213	22.571325
147	0x412310d3	10.191607
148	0x40e9db21	7.307999
149	0xbe88b034	-0.26696932
150	0x413d085c	11.814541
151	0xbe8c5a15	-0.27412477
152	0xc05eaea3	-3.479409
153	0xbee56558	-0.44803882
154	0xc16835da	-14.513147
155	0x408cf54e	4.4049444
156	0xc05e35bc	-3.4720297
157	0x4076bc03	3.8552253
158	0xc0dfa284	-6.9885883
159	0xc0b67d40	-5.7027893
160	0x41477f66	12.468603
161	0xc1853528	-16.650955
162	0xc03775f8	-2.8665752
163	0xc1be844f	-23.814604
164	0x3e7bf8fb	0.24606697
165	0x409c39f6	4.8820753
166	0x406c87a6	3.6957793
167	0x418cd9e0	17.606384
168	0x4001c02a	2.0273538
169	0xc18f1c7b	-17.888906
170	0x4038d36a	2.8879037
171	0x3f0ece3f	0.55783457
172	0xc1b6139b	-22.759573
173	0x40e1b89b	7.053785
174	0xc11a036b	-9.625834
175	0xc1600abf	-14.002624
176	0xc038623c	-2.8809958
177	0xc0ac2da7	-5.380573
178	0xc19cb7c4	-19.58973
179	0x41d88a1d	27.067438
180	0xc0d403b8	-6.625454
181	0x410bd0d8	8.738487
182	0x4117dd1e	9.491484
183	0x41cbf4d4	25.494545
184	0xc195f567	-18.744825
185	0x40a2b589	5.08466
186	0x41498332	12.59453
187	0x3fd83981	1.6892549
188	0x41513a65	13.0767565
189	0xbde639f7	-0.11241525
190	0x4154eff8	13.308586
191	0xbded465a	-0.11585684
192	0xc11a391f	-9.638946
193	0xbfd75a7e	-1.6824491
194	0xc0c38619	-6.1101193
195	0xc1b9c7a0	-23.222473
196	0x4194643e	18.548946
197	0xc1922257	-18.266768
198	0xc1009524	-8.036411
199	0xc02cc958	-2.699789
200	0xc0a47671	-5.139458
201	0xbfa30cd6	-1.2738292
202	0xc088e2f6	-4.277705
203	0x3fc17f21	1.5116922
204	0x41726bfb	15.151362
205	0xbf2eafab	-0.682368
206	0x40c1eab0	6.0598984
207	0xbe0be10a	-0.13660064
208	0xc139ef0c	-11.620861
209	0x40555a14	3.333623
210	0xc0963ff9	-4.695309
211	0xc16e7310	-14.903091
212	0xc15c017e	-13.750364
213	0x40b5596a	5.667165
214	0x405b221d	3.423957
215	0x4189d494	17.228798
216	0xc18511e2	-16.633732
217	0x41d3bdab	26.467611
218	0xc0fa966d	-7.8308625
219	0x403a6da5	2.9129422
220	0xbf4bbd71	-0.7958594
221	0x41ec0b6e	29.50558
222	0xc1f9c2cc	-31.220116
223	0xc16086b7	-14.032889
224	0xc16c57a8	-14.7714
225	0xc1d1dd19	-26.232958
226	0x41eb3f95	29.406046
227	0x3f4a62d1	0.7905703
228	0xbd685150	-0.05671817
229	0x41cebd19	25.842333
230	0x4112f32d	9.184369
231	0x4019e73c	2.4047384
232	0x40ace95a	5.4034853
233	0x417e9a49	15.912667
234	0x404a1250	3.1573677
235	0x4090aaac	4.520834
236	0xc102c1c7	-8.172309
237	0xc03a4dc6	-2.910997
238	0x416059ad	14.0218935
239	0x41e3747c	28.431877
240	0x416b2a3c	14.697811
241	0xc10c25cf	-8.759231
242	0xc04fc403	-3.2463386
243	0xc0a70e6f	-5.220512
244	0x40a3075a	5.0946474
245	0x3ec32d45	0.38120475
246	0xc142c793	-12.173724
247	0xc014f609	-2.3275168
248	0x3e4a9ccb	0.19786374
249	0xc0071a70	-2.1109886
250	0x41705aaa	15.022135
251	0xbe94e2da	-0.29079324
252	0x40322505	2.7835095
253	0xbfaf1ea2	-1.3681223
254	0x41142cf8	9.260979
255	0x4055d6e8	3.3412418

bn1.running_var f4 [400]
0	0x43174563	151.27104
1	0x4333781a	179.46915
2	0x430a26e0	138.15186
3	0x4350ff63	208.9976
4	0x43f1bd2d	483.47794
5	0x411545fe	9.329588
6	0x433dca87	189.79112
7	0x435b0e08	219.05481
8	0x440f77bb	573.8708
9	0x439f6bbd	318.8417
10	0x4300230c	128.1369
11	0x422bf4eb	42.989178
12	0x41bf9496	23.947552
13	0x433489c6	180.53818
14	0x42762aed	61.54192
15	0x434f7e3e	207.49313
16	0x42e5f71a	114.98262
17	0x43c23abd	388.4589
18	0x426a6576	58.599083
19	0x4315191c	149.09808
20	0x43532e3e	211.18063
21	0x42ae78d7	87.236015
22	0x43a6e25f	333.76852
23	0x4240502a	48.078285
24	0x43950afa	298.08575
25	0x439f510e	318.63324
26	0x41f79d77	30.951887
27	0x42b075dc	88.230194
28	0x410d3361	8.825044
29	0x434b295b	203.16154
30	0x42f8daa9	124.42707
31	0x43db82a8	439.02075
32	0x435e6900	222.41016
33	0x436d96bd	237.58882
34	0x43abbf39	343.49393
35	0x420c7b7c	35.12059
36	0x41576951	13.463212
37	0x42f6c618	123.3869
38	0x41d98434	27.189552
39	0x430b31e0	139.19482
40	0x422a025e	42.50231
41	0x43aac5b6	341.54462
42	0x41d8e57e	27.112057
43	0x42e8cbcd	116.39805
44	0x430ca779	140.65419
45	0x4395b7a0	299.43457
46	0x430c750d	140.45723
47	0x42912f39	72.59223
48	0x410c0b46	8.752752
49	0x42d08054	104.25064
50	0x43b4a701	361.30472
51	0x42de3886	111.1104
52	0x43171c28	151.10999
53	0x432992af	169.57298
54	0x431a8a05	154.53914
55	0x4180a08b	16.07839
56	0x4383162e	262.17328
57	0x4273a657	60.91244
58	0x42d6d204	107.41019
59	0x42b37430	89.72693
60	0x442bea75	687.6634
61	0x439f7701	318.92972
62	0x43351508	181.08215
63	0x43364a9e	182.29147
64	0x44458115	790.0169
65	0x42a70a7f	83.5205
66	0x43570830	215.03198
67	0x4411c106	583.016
68	0x43cb8c6c	407.09705
69	0x43307cda	176.4877
70	0x4331d77e	177.84177
71	0x43842a81	264.33206
72	0x42a932db	84.59933
73	0x4338fb98	184.98279
74	0x43926284	292.76965
75	0x42c38bf7	97.77337
76	0x42465566	49.583397
77	0x433c9cd6	188.61264
78	0x435575de	213.46042
79	0x43340ffa	180.06241
80	0x430dd235	141.82112
81	0x4418deb4	611.47974
82	0x434c1a30	204.1023
83	0x4329ac68	169.67346
84	0x432e508e	174.31467
85	0x41f26b6d	30.302454
86	0x40aaeb32	5.3412104
87	0x428dc472	70.88368
88	0x41ea9eff	29.327635
89	0x438e62d2	284.77203
90	0x43f20b66	484.08905
91	0x418d0251	17.626131
92	0x41272c6c	10.448345
93	0x43c76335	398.77505
94	0x42989815	76.297035
95	0x42965397	75.16326
96	0x42e5bf3b	114.8735
97	0x411e8483	9.9073515
98	0x42cba8d8	101.82977
99	0x41ac1b8e	21.513454
100	0x43b03bea	352.46808
101	0x431f4ef1	159.30836
102	0x425b9e32	54.904488
103	0x42877f81	67.74903
104	0x42f4d9e6	122.42558
105	0x42ae9db5	87.30802
106	0x4315db45	149.85652
107	0x4340f9b9	192.97548
108	0x43b09d82	353.23053
109	0x43252305	165.1368
110	0x43d66722	428.80573
111	0x43cc4af4	408.58557
112	0x43204861	160.28273
113	0x41cd7717	25.68315
114	0x41d01070	26.008026
115	0x41bfc3ea	23.970661
116	0x43d60340	428.0254
117	0x433734fc	183.20697
118	0x429167ef	72.702995
119	0x43129328	146.57483
120	0x4198fb68	19.122757
121	0x4340c30b	192.76189
122	0x43bf7b08	382.96118
123	0x417e94a9	15.911294
124	0x434515ac	197.08466
125	0x43663722	230.21536
126	0x41cf1c14	25.88871
127	0x42868708	67.26373
128	0x4363d015	227.81282
129	0x429d0f14	78.52945
130	0x43c77b1a	398.96173
131	0x414499ca	12.287546
132	0x4394da51	297.7056
133	0x4395ac5f	299.34665
134	0x432597e5	165.59334
135	0x4349ba14	201.72687
136	0x41222f01	10.136476
137	0x4302f55d	130.95845
138	0x42951079	74.53217
139	0x4374d498	244.83044
140	0x428e692c	71.205414
141	0x435ea85a	222.65762
142	0x43381d6f	184.11497
143	0x430fcc13	143.79716
144	0x438a4f39	276.61893
145	0x43702652	240.14969
146	0x43545602	212.33597
147	0x43f48d05	489.1017
148	0x438aabc2	277.34186
149	0x41cfc1d0	25.969635
150	0x431f9a00	159.60156
151	0x41874019	16.906298
152	0x43fa3494	500.41077
153	0x41139677	9.224235
154	0x43ab7082	342.87897
155	0x43a17129	322.88406
156	0x43a74958	334.573
157	0x438262e6	260.77264
158	0x41b5faa6	22.747387
159	0x429e3777	79.10833
160	0x43af37fd	350.4374
161	0x438b6e1c	278.86023
162	0x43fbe9ee	503.82758
163	0x42d0ecfc	104.46286
164	0x42c77b87	99.741264
165	0x4177608c	15.461071
166	0x41f51db8	30.639511
167	0x435129a7	209.1627
168	0x41888cae	17.068691
169	0x429d07cf	78.51525
170	0x430e7460	142.45459
171	0x414e79a8	12.904701
172	0x43a5e692	331.80133
173	0x421d4373	39.31587
174	0x43403cb1	192.23708
175	0x4311477d	145.27925
176	0x43074069	135.2516
177	0x41d463d4	26.548744
178	0x42f3b9e3	121.86306
179	0x431bcd7d	155.80269
180	0x42dda006	110.812546
181	0x438c208c	280.25427
182	0x436166ad	225.40108
183	0x441e50f1	633.2647
184	0x43cceb5e	409.8388
185	0x422a5720	42.585083
186	0x425dd4b1	55.457706
187	0x431e9757	158.59117
188	0x43c019b7	384.2009
189	0x4063ce50	3.5594673
190	0x43342e90	180.18188
191	0x438e99eb	285.20248
192	0x43073e67	135.24376
193	0x42896006	68.687546
194	0x4319fcc6	153.9874
195	0x42ec88b4	118.267
196	0x43204891	160.28346
197	0x42b57f38	90.748474
198	0x4275f088	61.484894
199	0x43c76837	398.81418
200	0x43988a36	305.07977
201	0x42068eca	33.639442
202	0x4405d4ad	535.32306
203	0x43c27ae3	388.96005
204	0x43b20de2	356.10846
205	0x4184b66a	16.58907
206	0x42fbacf5	125.83781
207	0x40d3ddfc	6.6208477
208	0x4395cae4	299.58508
209	0x43494f4b	201.30974
210	0x434f923f	207.57127
211	0x4355e2cb	213.88591
212	0x433214b1	178.08083
213	0x432a4ea2	170.30716
214	0x42174616	37.818443
215	0x43b37a5c	358.95593
216	0x42a97d0b	84.744225
217	0x4370b732	240.7156
218	0x42b5ba5b	90.863976
219	0x42b9c859	92.891304
220	0x431271e8	146.44495
221	0x43ffa546	511.2912
222	0x43a9af20	339.36816
223	0x43052577	133.14635
224	0x434ec227	206.7584
225	0x43316d66	177.42734
226	0x431a48f1	154.28493
227	0x426cacd7	59.16879
228	0x40a60c83	5.1890273
229	0x43aab506	341.41425
230	0x43280892	168.03348
231	0x42255784	41.335464
232	0x42ae3834	87.10977
233	0x438a4000	276.5
234	0x41b8093e	23.004513
235	0x42508ce6	52.137596
236	0x438b93e4	279.1554
237	0x42da2a30	109.0824
238	0x432873ef	168.45287
239	0x43b9092b	370.07162
240	0x4494d7d2	1190.7444
241	0x42deccb2	111.399796
242	0x41f35301	30.41553
243	0x431fbf1d	159.74654
244	0x42f5d181	122.90919
245	0x3eba3bf9	0.3637388
246	0x42dc8b9b	110.27267
247	0x431fcd4d	159.80196
248	0x43d1bb80	419.46484
249	0x425baf2b	54.921062
250	0x437e4f9d	254.31099
251	0x42739a39	60.900608
252	0x43555e77	213.369
253	0x41fafbf8	31.373032
254	0x420bb2d4	34.924637
255	0x40b6b9c5	5.710177

fc2.weight f4 [300, 402]
0	0xbed07d91	-0.407208
1	0x3f805ca5	1.0028273
2	0x3e4392e3	0.19099002
3	0x3d1295ce	0.035787396
4	0x3e797e7a	0.24364653
5	0xbd8e9821	-0.0696261
6	0x3e9260d9	0.28589514
7	0x3d4636a9	0.04839197
8	0xbf8f49ac	-1.1194358
9	0xbe9deefe	-0.308464
10	0xbe5ec330	-0.21754146
11	0x3e39729d	0.18110128
12	0x3f113720	0.5672474
13	0x3d7f7125	0.062363762
14	0xbdd87449	-0.10569055
15	0xbf0dbf7f	-0.55370325
16	0x3c94b8f7	0.018154604
17	0x3ed6a9d3	0.4192644
18	0xbec99035	-0.39367834
19	0x3e6b0199	0.22949828
20	0x3ee54950	0.44782495
21	0xbf785644	-0.9700663
22	0x3d40d004	0.04707338
23	0x3d134c27	0.035961296
24	0xbc9e680b	-0.01933672
25	0x3dfac6de	0.12244962
26	0x3eea686b	0.4578279
27	0x3b9ee885	0.004849496
28	0x3ee9398b	0.45551714
29	0xbe4546ed	-0.19265337
30	0xbea77daa	-0.32713062
31	0x3dc72994	0.09724727
32	0x3e40ae0d	0.18816395
33	0xbe56fae6	-0.20994148
34	0x3f02657d	0.5093611
35	0x3e9fc7c3	0.31207094
36	0xbf838d54	-1.0277505
37	0xbe11bf59	-0.1423315
38	0x3edc17a4	0.42986786
39	0x3e5ff31b	0.21870081
40	0x3f201816	0.6253675
41	0x3e7f525a	0.24933758
42	0x3dfc8dda	0.123317435
43	0x3e24a19d	0.16077276
44	0x3cff70fc	0.031181805
45	0xbdf25153	-0.118319176
46	0xbf0d6b74	-0.55242085
47	0x3db7d17b	0.08975502
48	0x3ea0593e	0.31318086
49	0x3da02526	0.078195855
50	0xbce4f5f7	-0.027949316
51	0xbf4ab7bb	-0.791866
52	0xbddf4392	-0.1090156
53	0xbeedf510	-0.4647603
54	0x3eecfe3e	0.4628772
55	0x3f0312cb	0.5120055
56	0xbe0a45fe	-0.13503262
57	0xbe7a5756	-0.24447379
58	0x3d8fe48a	0.07026012
59	0x3da9172b	0.08256372
60	0xbf3898a8	-0.72107935
61	0x3db30d26	0.08742742
62	0x3e827bbe	0.25485033
63	0xbdccb41a	-0.09995289
64	0xbe19608f	-0.1497824
65	0xbd98646e	-0.074410304
66	0x3ea24212	0.31691033
67	0xbe1990a3	-0.14996581
68	0x3ee110c3	0.439581
69	0xbe8bcf4e	-0.27306598
70	0xbee1697f	-0.440258
71	0x3f1b2d85	0.6061633
72	0x3d6c5f11	0.05770785
73	0x3dae977e	0.085249886
74	0xbdacf314	-0.08444801
75	0xbe810496	-0.2519881
76	0xbe0e0f5a	-0.13873044
77	0xbdd3cb33	-0.103414916
78	0xbdac1575	-0.0840253
79	0x3dbada94	0.09123722
80	0x3ecbdc68	0.39816594
81	0xbbc5bcc7	-0.006034467
82	0xbf5dfb81	-0.8671189
83	0xbd7a145b	-0.06105457
84	0x3ee4da76	0.44697922
85	0xbf1c5188	-0.61061907
86	0x3f8f1da4	1.1180921
87	0x3f08cc33	0.53436583
88	0xc056924d	-3.3526795
89	0x3eb1bc1e	0.34713835
90	0x3dcd02c8	0.10010296
91	0x3ce0574d	0.027385378
92	0x3dfd8e5c	0.123806685
93	0xbe76e510	-0.24110818
94	0xbd27e95a	-0.040994026
95	0xbe6e2091	-0.2325461
96	0x3db56e7c	0.08858964
97	0xbcf5305e	-0.02993029
98	0x3ec50020	0.38476658
99	0xbecc05ef	-0.39848277
100	0x3d12b770	0.03581947
101	0xbd240623	-0.040044915
102	0xbd988756	-0.07447688
103	0x3efa408f	0.4887738
104	0x3e70d090	0.2351706
105	0xbf5ac935	-0.8546327
106	0xbe4ebe59	-0.201898
107	0xbf3e314a	-0.7429396
108	0x3d330e28	0.043714672
109	0x3d984cc3	0.07436516
110	0xbd35cbdd	-0.044383872
111	0x3d21a408	0.039463073
112	0xbdd66168	-0.104677975
113	0xbebf690d	-0.37384835
114	0x3e1a872d	0.15090628
115	0x3ee73eed	0.45165196
116	0xbde36b15	-0.11104409
117	0x3d222f93	0.03959615
118	0x3ea7e52f	0.3279204
119	0xbe382ff7	-0.17987047
120	0xbe8a5cd9	-0.27023962
121	0x3d79cd64	0.06098689
122	0x3d9fa4ea	0.07795127
123	0xbf1553d1	-0.5833102
124	0x3e1e6fdf	0.15472363
125	0x3ec3a617	0.38212654
126	0x3ccd9bc7	0.025098694
127	0xbe24b4fc	-0.16084665
128	0x3e9382ea	0.28810817
129	0x3ebbe853	0.36700687
130	0xbe89f9d3	-0.26948413
131	0x3f03b711	0.5145121
132	0xbe8518c9	-0.25995472
133	0xbd0587a2	-0.032600053
134	0xbe8a395c	-0.26996887
135	0xbea63055	-0.3245875
136	0x3ee44004	0.4458009
137	0x3ebe6ac4	0.3719083
138	0xbe97042b	-0.29495367
139	0x3e218da4	0.15776688
140	0xbeb99893	-0.36249217
141	0xbe30937e	-0.17243764
142	0xbc9f8315	-0.019471684
143	0x3da71119	0.08157558
144	0xbecb158d	-0.3966488
145	0xbdd60791	-0.10450662
146	0x3dff469c	0.124646395
147	0x3e7c12f1	0.246166
148	0xbcfe8ed4	-0.031073965
149	0xbf1b7ed3	-0.60740393
150	0xbe9581a5	-0.29200473
151	0x3e8c2b7a	0.2737692
152	0xbea5b6a6	-0.32365912
153	0xbe9800c7	-0.29688093
154	0xbe2930a3	-0.1652246
155	0xbd292f7a	-0.041305043
156	0x3e8bf0d8	0.27332187
157	0x3dd06d68	0.101771176
158	0xbe0271ed	-0.12738772
159	0xbf02094c	-0.50795436
160	0x3f2dc13d	0.67872983
161	0x3e3b50c8	0.18292534
162	0xbf5cf169	-0.8630586
163	0xbe095df7	-0.13414751
164	0xbea8f73b	-0.33001122
165	0xbf502a65	-0.8131469
166	0x3e592291	0.21204592
167	0xbd183267	-0.037157442
168	0x3ef89aed	0.485557
169	0x3e780a38	0.24222648
170	0x3dbf2c21	0.09334589
171	0x3f9f4619	1.2443267
172	0x3e62d6bc	0.22152227
173	0x3b3a56af	0.0028433015
174	0xbec4563a	-0.38347036
175	0x3ec18a00	0.37800598
176	0xbe37df25	-0.17956217
177	0xbd95c9d0	-0.07313883
178	0xbf023696	-0.5086454
179	0x3e138b3f	0.14408587
180	0x3e293406	0.16523752
181	0xbe22629e	-0.15857932
182	0xbee0a777	-0.43877766
183	0x3e9385b5	0.28812948
184	0x3ebfe5eb	0.374801
185	0xbf2a1c49	-0.6644941
186	0xbd100bb9	-0.03516743
187	0xbf1b190d	-0.605851
188	0xbd32ef48	-0.043685228
189	0x3f18cb2c	0.59685016
190	0x3ed14902	0.40876013
191	0xbe691ba1	-0.22764446
192	0xbe3c7c23	-0.1840673
193	0xbe8ae8de	-0.2713079
194	0x3edd21b3	0.43189773
195	0xbea8c82f	-0.32965228
196	0xbe18a12b	-0.1490523
197	0x3dfc1c00	0.12310028
198	0xbdba6eba	-0.09103151
199	0x3e00eecd	0.12591095
200	0x3ea50431	0.3222976
201	0x3eab1a65	0.33418575
202	0xbd987e22	-0.07445933
203	0x3e431e15	0.19054444
204	0x3f00fa4a	0.5038191
205	0x3f1249c1	0.5714379
206	0xbd6f0ea3	-0.058363568
207	0xbf931779	-1.1491538
208	0xbd73ce1d	-0.059522737
209	0xbf654be3	-0.8956892
210	0x3e9ea7ca	0.30987388
211	0x3e8a311f	0.269906
212	0x3e8d1365	0.2755386
213	0x3d691803	0.056907665
214	0x3e9f3a10	0.31098986
215	0xbd56a079	-0.052399132
216	0xbf0d4bb0	-0.55193615
217	0x3d9bbb8d	0.07604132
218	0xbecc2b2a	-0.39876682
219	0x3d7eb07c	0.062180027
220	0x3d005acb	0.031336587
221	0xbc3e31b3	-0.011608529
222	0x3ed9d668	0.4254639
223	0x3e05dd9e	0.13072821
224	0xbebf1fb5	-0.37328878
225	0xbe6f96d9	-0.23397388
226	0x3e266d32	0.16252592
227	0xbe74d8f3	-0.23910885
228	0xbc9a04d6	-0.018801134
229	0x3e79203d	0.24328704
230	0x3ed4e352	0.41579682
231	0xbeb01bee	-0.3439631
232	0x3e91b1cb	0.28455958
233	0x3eba7655	0.36418405
234	0xbe797427	-0.24360715
235	0x3eb1eb1f	0.34749696
236	0x3df1671c	0.11787245
237	0x3e0e974d	0.13924904
238	0xbdb67cae	-0.089104995
239	0x3e8c9171	0.27454713
240	0xbd9ec50c	-0.077524275
241	0xbe6d95e9	-0.23201717
242	0x3edc2ff5	0.43005338
243	0x3eb6102e	0.3555922
244	0x3e19a2c9	0.15003504
245	0xbc50b9a7	-0.0127395755
246	0xbd912497	-0.07087057
247	0x3ebe8a01	0.37214664
248	0xbebd6772	-0.36992985
249	0xbdbdf1f3	-0.09274664
250	0xbe116fc4	-0.14202791
251	0x3ea20261	0.3164244
252	0xbef1077b	-0.4707602
253	0xbeb07c88	-0.3447001
254	0x3eb0bb20	0.34517765
255	0xbeff4b52	-0.49862152
