checkpoint_actor-4.pth (torch_old, 536697 bytes, 14 tensors)

fc1.weight f4 [400, 24]
00000000: 5c69 823c ae20 e83d 6f23 8c3c ff86 003e
00000010: 6ccb 8e3b 4957 49bd 28d4 b3bc e53b a33d
00000020: e1d2 72bd 95ad 0d3e d0f2 4e3c bca5 10bd
00000030: b160 8bbd 3a9d 6dbd 484e 81bc 5930 60bd
00000040: 95b8 15be b0ce 563e 0561 443c 35c8 fe3d
00000050: 59b8 153d 7f0d 85bd fdca 9cbc 1b77 fd3d
00000060: d7e8 bcbd 653f d9bc 4375 d2bc c94c f5bc
00000070: b332 a1bd da0e 97bd 9570 a4bb c8fa c5bd
00000080: b602 e0bd 7100 2a3c ed82 33bc d354 00bd
00000090: e28a 2abd 2b21 99bd a46f 16bd 2042 98bc
000000a0: 2a31 05be eedf ca3c 47a9 57bd 7dfa a6b9
000000b0: 8774 893b eb1b 87bd 6d23 f1bc 69dd b93c
000000c0: 50b5 b93d 1899 1c3e 3677 c2bc 69db afbc
000000d0: 56bb 9cbd 6bf2 6bbe ec3d bf3c 18fe d1bc
000000e0: 09ad c5bb 78f0 d93d db08 153c 6926 d43b
000000f0: 7f55 af3b 64ff 0abd 9d91 743b 517e 753c
00000100: ddc4 28bc 2050 073e e29b 24bd caf9 213e
00000110: 9400 3e3d 5b4a 53bc b8d4 363c cb44 b43d
00000120: 8233 a43b d005 2cbd 5a80 253c fa41 c1bc
00000130: 6aa1 573d d098 43bd b82d 72bb 2fc3 8cbd
00000140: b313 b4bd b5b8 a2bd 6a17 9e3b 1419 353c
00000150: 648a 0a3d bb14 253c ecca 423c 4ecf 5c3c
00000160: cd83 c4bd 4079 2dbe 949a 903c 4a59 36be
00000170: 3df5 c1bd be2b 1c3e b765 f3bc 3ae6 18be
00000180: b2fa 3f3c 7892 7fbd 0563 a23c ced9 9b3c
00000190: 76dd 81bd a7be 0cbe 7d51 95bc 22e7 c23b
000001a0: ba44 3e3d 55bb 53bd 645e 223c 95d0 7abc
000001b0: d3a8 c8bd f6a8 15be 8ec0 163a 7316 073c
000001c0: 6192 3b3c a284 d8bd 078d a4bc befb 05bb
000001d0: 7b37 47bc 6f62 50be e94d 543d 232a 77bc
000001e0: 9a18 263d 73cc 8cbd 1cd3 18bc ee59 3e3d
000001f0: 6510 e1bd 85dc bebd 0b70 1ebc 47b5 2b3d
00000200: 9ef3 a83d 75e4 e4bc 199c 203d d761 363d
00000210: 7e8f 10bd c7eb f5bd 42ed 123d d922 d93b
00000220: a05f f13d b8de 003b 0f1a 9cbc 6ad8 013d
00000230: 5c52 9abd 4531 01be d232 c9bb eaf8 683d
00000240: 0333 a13d b617 75bd 549d efbc fbcb de3c
00000250: bd85 d9bd b7ef 04be bf9d d23c 0773 103d
00000260: d5f8 773d 1450 cbbc b6e8 a2ba 30f3 a1bc
00000270: 84e5 13bc 6507 2dbe d31b e63b cb8b 8dbc
00000280: 8164 72bc 895b 3a3d b0f5 203d 843d 003e
00000290: 7386 18bd ef93 6ebc 17ff 013d e947 c53d
000002a0: 7838 3ebd e39f 5abd fc01 2abd 53e5 efbb
000002b0: 16b6 d83d 6541 873e 6fe7 1d3d 7cf5 713d
000002c0: 4bcc 9bbc cce5 083b 6882 e6bc 8053 803d
000002d0: 49b7 ee3c ad19 233d 9429 d43b 5feb 90bc
000002e0: 74a3 8e3d dad7 a3bb 5a6d 27bc 09f7 0bbd
000002f0: d0bf e1bd 6a89 abbd 0434 1f3c 90e2 cc3a
00000300: d3ab 92bc 5a29 b23c 6239 c33c 259f 4bbc
00000310: c6fb acbd b1bc 343c efc2 d9bc f752 9fbd
00000320: 5f20 99bd ad55 9d3d 7e96 513c be52 993c
00000330: c5dc 483d f07e 69bc e476 40bc d4db a8ba
00000340: 4c8c ccbd ab82 c33d 41b1 b0bb 0784 c23d
00000350: 7091 c13d 2612 1dbe 19a6 afbb 8e42 103e
00000360: 9797 02be a4d1 55be aa5c db3c 1ee0 043d
00000370: 61d3 383d 6391 a0bd d5f6 c6bc 7c0d 873c
00000380: 5b7c f8bd 8a12 43be c54c 0cbc c6ec 47bc
00000390: 6eb3 4fbc ecd9 acbc fd1c 2e3d eec1 303c
000003a0: 8dfe 87bc 292b 5dbe 9e4a d63c 7660 0abd
000003b0: ce13 853c 3d70 46bd 53f0 a9bb c32a 9dbd
000003c0: 4871 38bc cbda 623d e8a8 873c 601c a23d
000003d0: 9bdc 9e3d 7119 5c3e a4f8 87bc aa8f 1abc
000003e0: 5e3d 5f3b 05f1 073e 8b58 dfbb ef90 7a3d
000003f0: cf16 e1ba 263c e2bb 6cd4 2a3c 2ce5 753c
0.01591938 0.11334358 0.01710674 0.12551497 0.004357746 -0.049155507 -0.02195175 0.07970408
-0.05928314 0.13835748 0.012631133 -0.035314307 -0.06805552 -0.05801127 -0.015784398 -0.054733608
-0.14621194 0.20977283 0.011986022 0.1244053 0.03655276 -0.06496715 -0.019139761 0.12376233
-0.09224098 -0.026519487 -0.02569068 -0.02994384 -0.07870998 -0.073758796 -0.0050183036 -0.09666973
-0.10938017 0.010376082 -0.010956508 -0.031330895 -0.041636355 -0.074770294 -0.036727563 -0.018586218
-0.13007036 0.024764981 -0.05265167 -0.00031848616 0.0041947993 -0.06597122 -0.029435838 0.022688584
0.09067786 0.15292776 -0.023738485 -0.021466928 -0.07652919 -0.23041694 0.023344956 -0.025633857
-0.0060325903 0.10641569 0.00909635 0.0064743054 0.005350768 -0.033934966 0.0037318238 0.014983729
-0.010300842 0.13214159 -0.040187724 0.15817943 0.04638727 -0.012896146 0.011159115 0.08802184
0.005011023 -0.04199773 0.010101402 -0.02359103 0.05264417 -0.047753155 -0.003695352 -0.06873166
-0.0879282 -0.07945386 0.0048245685 0.011053342 0.033823386 0.010075743 0.011889201 0.01347716
-0.095954515 -0.16940784 0.017651834 -0.17807499 -0.094706036 0.15251061 -0.029711587 -0.14931574
0.011717485 -0.062395543 0.019822607 0.019024756 -0.063410684 -0.13744603 -0.018227333 0.0059479633
0.04645226 -0.051692326 0.0099102 -0.015308519 -0.09797826 -0.14615235 0.0005750739 0.008245098
0.011448474 -0.10572173 -0.020086778 -0.002044424 -0.012159224 -0.2035005 0.051832113 -0.01508573
0.040550806 -0.06874933 -0.009327676 0.046472482 -0.10989455 -0.093194045 -0.009670268 0.041920926
0.08249591 -0.027940968 0.039211366 0.0445269 -0.035293095 -0.120078616 0.035870798 0.0066264686
0.11785817 0.0019664 -0.019055394 0.03170053 -0.0753524 -0.12616451 -0.0061400915 0.056878008
0.07871058 -0.059837066 -0.029249825 0.027196875 -0.10621212 -0.12982069 0.025709985 0.03526595
0.06054004 -0.024818458 -0.0012428972 -0.019769281 -0.009026889 -0.16897352 0.00702236 -0.017278573
-0.01479447 0.04549745 0.039296806 0.12523466 -0.037237596 -0.014561637 0.031737413 0.096328564
-0.04644057 -0.053375136 -0.0415058 -0.0073210387 0.10581605 0.2641708 0.03855079 0.059072003
-0.019018313 0.0020888923 -0.028138354 0.06265926 0.029140132 0.03981941 0.006474683 -0.017690359
0.0696477 -0.0050000967 -0.010218943 -0.034171138 -0.110229135 -0.08375819 0.009716991 0.0015631486
-0.017904198 0.021748234 0.023831073 -0.01242808 -0.084464595 0.011031316 -0.02658221 -0.07779496
-0.074768774 0.07682357 0.012792228 0.018716212 0.049038667 -0.014251456 -0.011747096 -0.0012882897
-0.09987697 0.09546407 -0.005392224 0.094978385 0.09451568 -0.15338954 -0.0053603766 0.14087889
-0.1275314 -0.20880753 0.026777584 0.032440297 0.04512346 -0.0784023 -0.02428762 0.016485922
-0.12133094 -0.19050041 -0.008563225 -0.012202447 -0.012677057 -0.021100007 0.042508114 0.010788424
-0.016600871 -0.21598496 0.026158627 -0.0337834 0.016244795 -0.048446883 -0.0051861196 -0.07674172
-0.011257477 0.05538444 0.016560033 0.07915568 0.07756921 0.2149408 -0.016598053 -0.009433666
0.0034063677 0.13275535 -0.006815975 0.061173376 -0.0017172935 -0.006904143 0.010426622 0.015008252

fc1.bias f4 [400]
00000000: 7134 903d aa35 1e3c 037c 32be d24a c0bd
00000010: 5b8a d23d f99f 023e 1099 933d 57d8 183e
00000020: 8c47 e0bd bddc b2bd 1756 0dbd 1f37 5dbd
00000030: 6fe7 493e 740f 71be 342d 2c3c 707c 463e
00000040: ed2e f7bd 7417 0f3e 2673 3dbe 2000 f33c
00000050: 9e40 f8bd 022b 883d 33d7 723d 8033 293d
00000060: 7d16 42bd 29d4 98bd 800a 36be d119 dd3c
00000070: bbba 593e c02b 09be 48fc acbd 205e 543d
00000080: 55ad e33d 1833 9c3d 100c 013e c32b 283c
00000090: 453b 97bd 7b5d 38be bac0 60be ea8f 0bbe
000000a0: 6601 c13d 9e62 213e 48fe 333e 48b6 273e
000000b0: 47ca b8bb 8d26 333e 2a80 893d 384a 04be
000000c0: be3b 41bd c4c6 2dbe 5273 123e 8177 5e3d
000000d0: 0df1 463e 3815 8f3c 5943 2f3e 5aa4 a23d
000000e0: b4c5 93bd b519 9e3c 1fe8 223e 340f 51bd
000000f0: 6404 213e c413 533d 108c 88bd 09af d8bd
00000100: c305 c2bd ddcb 063e e94f 483e e1c3 2cbe
00000110: e007 33be 07a3 e93d 50ac 30bd 1000 32be
00000120: 2489 2f3d ba0f 3fbd 6d07 163e e099 d53c
00000130: 9641 0bbe 339e f1bc 9e7d 17be 095e aa3d
00000140: 0eec 803d 707d e73d 817f 25be 0578 eebd
00000150: f0d6 17be e780 2fbe 3138 24be 4d92 36be
00000160: 6bf9 013e d2ca 85bd a2cd 2bbd 1e09 863d
00000170: d24f 4f3d 1cff dc3d cce7 1ebe 16e7 4d3e
00000180: f8fc 14bd 659b e1bd b9da 083e ff12 2ebe
00000190: dfa8 e5bd fdcc e13d ef97 ce3d 0e9c a4bd
000001a0: 3839 a6bc 6606 1cbd 633c d43d 354c d63c
000001b0: 9b18 863d 0d09 3b3e 21ac 07be 4290 22be
000001c0: ed95 38bd 831e c4bd 95d9 1abe 9a6e 3b3e
000001d0: cba2 293e 4aa5 1f3e 02d5 03be 1801 5ebb
000001e0: f5ac 29be d84d e7bd 4a13 553e e4cc 703d
000001f0: b03a 7f3d 4902 4fbe c54d 893d 38be e73d
00000200: c574 2abd 525a 103e 6d47 983d e21c 29be
00000210: a1dd 3ebe 2323 99bb 7d81 48be 5cfa f6bd
00000220: 7576 c23d 8b3c 6ebd 1f36 2fbc 28ec b6bd
00000230: 03a8 b23d 3d32 073e 21e0 053e 9af0 5abe
00000240: d03e 31bd 891b d13d db00 043e 8ac4 c3bc
00000250: 969f 143e b318 4dbc 0b1a e33c 8c1c 063e
00000260: 2056 073e 7018 1abe 9da9 1ebe 8a33 b33d
00000270: 7e05 fd3d 8503 39bd 0d0d 493e 50fd 25bb
00000280: 9478 d1bd 3303 19bd fba7 36be fe4e 343d
00000290: 6301 1cbe de64 3c3e fb89 22be 6714 123e
000002a0: bdeb 3abe 185e 71bc 6882 dfbd 1c44 d13d
000002b0: 3426 f03d b02c 46be eaac 45be 44f7 af3c
000002c0: 5c9a 33bd 9293 11bc 00af 843d ed4f 04bd
000002d0: 0ee2 333e 6541 173d 1688 c0bd 2fc4 c23d
000002e0: c368 2ebe a104 c8bd e356 9a3d fbe8 c2bd
000002f0: c272 6cbe a931 013e 8741 623d 035d 6d3d
00000300: 492e b03d 72d4 45be 530b aebd 6e7d abbd
00000310: fd88 563e cb6b 77bd c021 12be 7624 84bd
00000320: ef91 3e3d d783 b93d df28 2e3e 85f5 0f3e
00000330: 86ed ee3c cb8b 3e3e a508 d83d 5687 c63d
00000340: 75d5 38be 009d 883c 02f9 71bd 8e15 67be
00000350: a406 b9bd acbc 293e 8137 b43d d0a0 6a3e
00000360: 3178 033e 3fba 1cbb 6ce5 1d3e 025e 1b3d
00000370: 21d6 4abd ed6a bebd 40a9 d33d 8d58 b23d
00000380: 5b76 303e 5906 b9bc 5698 41be 2d2a 2e3d
00000390: 07e2 753c e2b4 0cbe b336 073d 5122 02bd
000003a0: 49ea 343e 698c 8b3b 061b a4bd f90f 343e
000003b0: 18ed c3bc 36ec 0bbd 5169 de3d 0c46 383e
000003c0: d207 b73d 1289 b63b fa19 313e 7c60 f7bd
000003d0: dd26 273e ebf1 12be df99 553c 9301 413e
000003e0: 2caf 983d 6725 29bd 2919 003e 2eb6 033e
000003f0: 8825 2bbe a038 18bc 932e 0fbe 697d 1bbd
0.070412524 0.009656349 -0.17430119 -0.09389271 0.102802955 0.12756337 0.07206929 0.14926277
-0.109511465 -0.08733509 -0.03450593 -0.054007646 0.19717191 -0.23541051 0.010508824 0.19383407
-0.12069497 0.1397379 -0.18500957 0.029663146 -0.121217 0.06648828 0.05928726 0.04130888
-0.047384728 -0.07462341 -0.17777443 0.02698985 0.21262638 -0.13395596 -0.08446556 0.051847577
0.11117045 0.07626933 0.12602258 0.01026434 -0.07384352 -0.1800441 -0.2194852 -0.13629118
0.09424095 0.15760276 0.1757747 0.16378129 -0.0056393477 0.17495175 0.067138985 -0.12918937
-0.047176115 -0.16970354 0.14301804 0.054313187 0.19427891 0.017466173 0.17115535 0.07941504
-0.07215443 0.019299367 0.1590886 -0.05103989 0.15724331 0.05153252 -0.0666734 -0.1058026
-0.09473755 0.13163705 0.19561733 -0.16871597 -0.17483473 0.11408048 -0.04313308 -0.17382836
0.042855397 -0.046645857 0.1465127 0.02607435 -0.13599238 -0.02949438 -0.14794013 0.08318717
0.06295024 0.11303222 -0.1616192 -0.11643986 -0.14828086 -0.17139016 -0.1603706 -0.17829247
0.12692802 -0.065328255 -0.041944154 0.06544708 0.050613232 0.10790846 -0.15518111 0.20107684
-0.036374062 -0.11015967 0.13364686 -0.16999434 -0.1121385 0.110254265 0.10087573 -0.080375776
-0.020290956 -0.03809204 0.1036308 0.026159385 0.06547662 0.18265171 -0.13249256 -0.15875342
-0.045064855 -0.09576132 -0.15122063 0.1830391 0.16566007 0.15590397 -0.12874225 -0.0033875164
-0.16569884 -0.112941444 0.2080814 0.05878915 0.062311828 -0.20215715 0.067042865 0.11315578
-0.041615266 0.14096954 0.074354984 -0.16514924 -0.18639232 -0.004673378 -0.19580646 -0.12059471
0.0949525 -0.058163207 -0.010694056 -0.08931762 0.08723452 0.13202758 0.1307378 -0.21380845
-0.043272793 0.1021033 0.12890951 -0.023897428 0.14514002 -0.012518096 0.02772238 0.13096827
0.13216448 -0.15048385 -0.1549439 0.08750065 0.12354563 -0.045169372 0.19633885 -0.0025327988
-0.102280766 -0.037356567 -0.17837517 0.044020645 -0.15234904 0.18397853 -0.15872948 0.14265595
-0.1825399 -0.014731906 -0.10913545 0.10218069 0.11726037 -0.19352984 -0.19304243 0.02148021
-0.04384838 -0.008885281 0.06478691 -0.032302786 0.17566702 0.0369276 -0.09400956 0.09510075
-0.17032151 -0.09766508 0.075361036 -0.09517094 -0.23090652 0.126166 0.055238273 0.05795003
0.08602578 -0.19319323 -0.08498254 -0.08373533 0.20950694 -0.060405534 -0.14270687 -0.06452267
0.046525892 0.090583496 0.17007779 0.14058502 0.029165994 0.18608014 0.10548524 0.09693782
-0.18050177 0.016676426 -0.059075363 -0.22566816 -0.0903447 0.16575879 0.08799649 0.22912908
0.12838818 -0.0023914722 0.15419549 0.03793145 -0.049520615 -0.09297738 0.10335016 0.08708296
0.17232649 -0.022586035 -0.18905768 0.04252069 0.015007502 -0.13740876 0.03301115 -0.031771008
0.17667498 0.0042586816 -0.08012967 0.17584218 -0.023916766 -0.034160815 0.10859931 0.17995471
0.089370385 0.0055705393 0.17295066 -0.1207895 0.16323419 -0.14350097 0.013037174 0.18848257
0.074552864 -0.041295435 0.12509598 0.12862465 -0.16713536 -0.009290844 -0.1398261 -0.037961397

bn1.weight f4 [400]
00000000: 5505 413f 536e 1e3e 0590 873e 453b 913e
00000010: 9b80 2c3f fdd2 ba3e 6fe8 3c3e 6fcb 6e3f
00000020: a53b 163f 4bb8 443f d927 323f 0c84 033f
00000030: 42b2 2b3f 8526 903e 9f8e 643f c6f0 af3e
00000040: 51d4 4b3f bf28 5c3e d787 833e 3671 2b3f
00000050: 24d0 9c3e 8dc2 053f ac86 343f 3996 3a3f
00000060: a849 173e 4885 0e3f fa30 203f 4797 5b3f
00000070: c0ec b33e 6e2d aa3e bc6f 1e3e a8f5 003f
00000080: f784 113f 47d4 f13e c539 a43e 6221 563e
00000090: fdc0 c23e c8e5 b13e 5c5d 0a3f dcd5 4f3f
000000a0: dacd 303f 88e5 223e a40d df3e 507a a73e
000000b0: e979 2c3f 7cf6 4f3f 88db 3e3e 5d7e b43e
000000c0: 757c 4b3e b2a1 b83e 9414 573e 6ca4 1b3f
000000d0: b119 803e 910b a33e 1897 f03e da8f b03e
000000e0: 5bab 7a3f 032b 6a3f b2b8 9b3d 0f44 2d3f
000000f0: 30ce d23e c28c 113f 80f6 943e b4da c43e
00000100: f450 d03e 3754 303f 614d 3a3f 6875 363f
00000110: 7478 d83e 99d6 0b3e ffc7 7a3e e21a 4b3e
00000120: 1f9a 28ba 1d90 423f 8e60 763e 1807 893e
00000130: c683 913e c4ce 1b3f 9364 823e d2a1 323e
00000140: 56d5 0e3e 029a aa3e 71c7 013f f711 283e
00000150: 7519 213e dca8 403d 1ee9 203f 9b24 243f
00000160: 1613 d73e e786 693e 5d25 a43e c7f6 3e3f
00000170: 4f26 a13e 126b c03e f558 bc3e 394c 023f
00000180: 714c 363f b084 2f3f c669 4b3f 90d6 a73e
00000190: 0bee 1b3f 94e5 7f3e 4a08 243e 51c1 703f
000001a0: d0bf 013f d768 9a3e f3c1 0d3f 3248 213f
000001b0: fee3 0e3f 7bf0 173f 9ead f63e 5a9a 193e
000001c0: f823 8c3d b2e2 8d3f bf9c 363f 384d 243e
000001d0: 5933 4a3f ecd2 a83d 5940 6b3f 2ab0 253f
000001e0: 75f4 2b3f 60fa 0c3f b9b0 853e 7dfc 9a3e
000001f0: 9f81 033f a86d 163f c9dd 3c3f 3993 1f3f
00000200: b8ec 5b3f 6ab3 113e 82ce d23e 2dcc 5f3f
00000210: 0713 113f 3b1f 3d3f e46c 933e f29e 833e
00000220: aeb6 103f 8637 e63e fc43 533e d9a8 523f
00000230: 0714 203f 691f 223f 5fa0 1d3f 3f0e 6f3e
00000240: c40d 7a3e 1189 473e 191c 4f3f 77c4 5a3e
00000250: 0fd3 a63f cb7e c23e 4b07 253f 59a0 4f3f
00000260: 56ab 823e 4072 343e 59e7 fe3e 78e5 933e
00000270: a623 7e3f 81ee 483f f339 4b3f 9e6d 113f
00000280: 7b7c 4f3e 466c c33d b8da 853e 425c 5a3f
00000290: 6522 d73e 944c c33e 6e0c f83e 28ff c53e
000002a0: 53c7 303f 97fa 873e 7bc2 a43e 90b6 6a3f
000002b0: 16e1 233f 0524 1f3f 5b7a 403f c69e 1e3e
000002c0: 65ad 3a3f 0a6d 973e af69 fb3e 7c1f 193f
000002d0: 3867 c13e 8a2f 543f 27af 053f ca17 243f
000002e0: 6485 d73e 497b 6aba 7fae 9b3e 2d69 433e
000002f0: e8b7 093f 674f 6e3e c987 083e 7410 de3e
00000300: 6f2e 163e 0147 7b3e 5adf 633e ea10 133f
00000310: 85c6 813f 6095 223f cce9 af3e 1342 443f
00000320: 2fb8 583f 4d07 c23e 49cb 3a3f c7cc 0f3f
00000330: 9386 5c3e f7a7 b13e bd80 883e f370 233f
00000340: 1f0c 4b3f 800b 5d3a 933a 973e 41bf 053f
00000350: 99c3 763f ae14 9a3e 5f28 3c3f b08e db3e
00000360: 8fd6 6e3e c99e b83e 560f cf3e a2ad 5e3e
00000370: cd03 843e 7ad1 003f ea74 d73e ab72 9e3e
00000380: d66b 3a3f 83e9 483f 3bf2 143f b56c b43e
00000390: dcea 233e 890d 493e fe64 e63e cfc9 b93e
000003a0: 5243 1c3f fe66 5f3e 3903 a43e 47d7 e03e
000003b0: 1193 493f 12a6 4a3f 38fe 8d3e 1be6 fc3e
000003c0: 6cac c13e 89c8 cd3e bdd4 343f 4f80 a73e
000003d0: 61ef f23e aff9 c03d 8c17 9b3e 03cb 423d
000003e0: 7fb3 163f c2f3 173e 8530 4f3e 88f2 563e
000003f0: 0801 663f 894a b93e 9d33 6b3f 3fee 823e
0.7539876 0.15471773 0.26477066 0.28365532 0.67383736 0.36489096 0.18448041 0.93279165
0.5868476 0.7684371 0.6959205 0.5137336 0.67068875 0.28154388 0.8928012 0.34363383
0.79620844 0.21499918 0.25689575 0.6696962 0.3062755 0.52249986 0.7051799 0.7288547
0.14774191 0.5567212 0.6257473 0.85777706 0.35141563 0.33237785 0.15472311 0.5037484
0.56843513 0.47232267 0.32075325 0.20911172 0.38037863 0.34745622 0.54048705 0.811857
0.69064105 0.15907872 0.43565094 0.32710505 0.6737352 0.8123548 0.18638432 0.35252658
0.19871695 0.36060864 0.21003944 0.6079776 0.250196 0.31844762 0.46990275 0.3448475
0.9791772 0.9147188 0.07603587 0.67681974 0.41172934 0.56855404 0.29094315 0.38448107
0.40686762 0.688785 0.7277432 0.712729 0.42279398 0.13656081 0.24490355 0.19834474
-0.0006431657 0.7600115 0.2406027 0.26763225 0.28420848 0.60862374 0.25467357 0.17444542
0.13948569 0.33320624 0.5069495 0.16413103 0.15732367 0.047036037 0.6285571 0.64118356
0.4200675 0.22805367 0.32059756 0.745953 0.3147454 0.37581688 0.3678662 0.50897557
0.7121039 0.6856184 0.7945827 0.32780886 0.609101 0.24989921 0.16018787 0.9404498
0.5068331 0.3015811 0.5537407 0.63000786 0.5581664 0.5935132 0.48179334 0.15000287
0.06842798 1.1084807 0.71332926 0.16045082 0.789846 0.08243355 0.9189506 0.6472193
0.67169887 0.5506954 0.2611139 0.30270758 0.5136966 0.5876107 0.7377592 0.6233402
0.8590808 0.14228597 0.41173178 0.8742092 0.5666966 0.7387578 0.28794014 0.25707203
0.5652875 0.44964236 0.20631403 0.8228889 0.6253056 0.6332918 0.6157283 0.23345278
0.24419314 0.1948588 0.8090225 0.21364008 1.303316 0.3798736 0.64464253 0.81104046
0.25521344 0.17621708 0.4978588 0.28886008 0.99273145 0.7848893 0.793853 0.5680789
0.2026233 0.09542136 0.26143432 0.85297024 0.42018428 0.38144362 0.48446983 0.3867123
0.69054145 0.26558372 0.32179627 0.9168482 0.6401533 0.62164336 0.751867 0.15490255
0.7292083 0.29575378 0.49104068 0.59813666 0.37774062 0.8288504 0.52220386 0.640988
0.42093956 -0.00089447625 0.30406567 0.1908309 0.53796244 0.23272477 0.13333048 0.43371928
0.1466615 0.24538805 0.2225317 0.57447684 1.0138708 0.6350918 0.3435806 0.7666332
0.8465604 0.37896195 0.7296644 0.5617184 0.21535711 0.3469846 0.2666072 0.6384422
0.7931537 0.00084321946 0.29536876 0.52244955 0.9639221 0.30093902 0.734991 0.428823
0.23324035 0.36058643 0.40441388 0.21745923 0.2578415 0.50319636 0.42081386 0.3094686
0.72820795 0.7848131 0.58182114 0.35239187 0.1600756 0.1963407 0.44998926 0.3628678
0.6104022 0.21816632 0.3203371 0.43914244 0.7874003 0.79159653 0.27733016 0.49394307
0.3782686 0.4019206 0.7063711 0.3271508 0.47448257 0.09422623 0.30291402 0.04755689
0.5886764 0.1483908 0.20233352 0.20990956 0.89845324 0.36189678 0.9187563 0.25572392

bn1.bias f4 [400]
00000000: 6dc3 57be e6c5 febd 3a22 acbd 5636 e8bd
00000010: 473f 71be a981 3dbd 59ab bcbd 16f8 1bbe
00000020: bf52 89be 98ad 7ebe e3eb a9b9 115c e9bc
00000030: acf8 d2be b710 aabc 0aea 82be a77f c9bd
00000040: 7ce6 8bbd 3534 f9bd 513d 17bd 09e1 a6be
00000050: cad6 1fbe 560d 2cbe fc09 48be a850 29be
00000060: ac9d b7bd 423c 54bd bb2f abbe 65cf 32be
00000070: 51d9 0fbe 793c 72be ecbb a5bc 065b 58be
00000080: c978 73be 31a1 b03b 172f 1ebe ba6e b2bd
00000090: b748 dbbc 6c40 85be 5773 bc3c ed90 dabe
000000a0: cf8e a5bd a675 193d 53b2 afbc 158b debd
000000b0: 2e4d cebe 1183 bbbd 6381 07bb 93e7 d6bd
000000c0: 9a8f 4fbe 9fbc b0be 7c31 f5bd 227d 31be
000000d0: 810a 763d 4fde 4abd 483e 80be 7f80 703d
000000e0: 37b0 1abe 4c42 7fbe 0075 a73b 6277 84be
000000f0: cdd0 6bbe ca4d 72be 630b 403e 139f 99be
00000100: 516b 0abe c855 04be bbac 1abe e5ee a93d
00000110: 4b7b a4be 0468 3d3d 8881 01bd 934a e1bd
00000120: 1407 c8bb 87fd 81be f89c 80bd af97 08bc
00000130: 0bcc 023d c5bb bfbe 7698 29be 5c9a 5dbe
00000140: 815b 88bd 3d97 2ebe 960c 1abe 730b 49be
00000150: 0685 35be d010 113d 4b35 e0bc 3d4c 50bd
00000160: e493 22be 212c 3a3e 3f9d 8fbe c31b c9bd
00000170: 4bd0 58be db47 65be aa4e 81be 04b4 63be
00000180: 3336 38be 4e3f 2bbe 99f0 ecbe 0400 c4bd
00000190: 8b59 f9bd ea8c 7cbc a6ae c7bd a485 a7be
000001a0: 7aeb a5be 71bf 80bd 991a 66be 1a4b 76be
000001b0: cc63 87be 1411 bdbd fd56 ebbc 0621 56bd
000001c0: 4ccd e03c 1ece 9f3c ce26 d7be 3fc7 803c
000001d0: c4d5 e4bd 0247 463d 75a3 13be 3c12 b4bd
000001e0: 8e46 47be feaa 19bf cf6f 61be 931e ebbd
000001f0: 0b48 f0bd bef1 83be 9549 61be 21b9 75be
00000200: a104 5cbb a899 abbc 0f07 80be c434 1fbd
00000210: 675f 2a3c fd09 b5be faa2 e7bd 01d9 88be
00000220: 107d 5bbe 3e0c 41be 773a 0fbe 6ab3 80be
00000230: a1c8 aa3d a164 90bc 4f5a 32be 4264 bcbd
00000240: 6ee6 a4bd c757 0fbe 921c a3bd 2af7 0cbe
00000250: e82d babd d363 e5bd c279 5cbe db1c cebd
00000260: 024d ec3c 2a9c 66be 3aba 43be 9264 8bbe
00000270: d078 64be dcc2 20be eacb 86be 4ff3 9f3a
00000280: ef34 1abd 4696 0abd 4594 e0bd f295 02be
00000290: 6f1a fdbd f9ea 0e3d a651 5e3c 6c74 78be
000002a0: 3b68 aebd 951c 5fbe 53c5 58bd 505f 02be
000002b0: b044 11be 54c3 52be 2a85 83be e37f 723d
000002c0: 7009 923d 98d7 193b 1b95 70be 7bd9 94be
000002d0: 0215 dcbd 66ea 8bbe 22e2 7dbe 8156 bfbe
000002e0: 07c2 1bbe 06a4 253d d60a 4cbd 6196 6cbe
000002f0: dd54 55be d787 a8bd 88cf 17be 8268 20be
00000300: 39c6 8dbc b04c 3fbd abb4 59bd e971 3dbe
00000310: ddef 41be f839 87be 387b 89be 7699 d6bd
00000320: eab8 ccbe ae94 79be 88a2 5dbe f21e b6bd
00000330: cfb6 64bd 9dfb 67be 5bed 23bd 86d9 b6be
00000340: 1faa 0a3d 491e 0ebc dbdb d9bd 14e8 86be
00000350: 0383 9cbe c93f 12be 26cc 8aba defb 1abe
00000360: 0048 92bd a5b6 1fbe 2cea 40be 5641 cb3c
00000370: 0ab5 0cbe 70b1 13be 538e 6bbe e724 d9bb
00000380: f74d 3ebe fea3 32be 40f6 a0be 751a 44be
00000390: 02eb 95bd dd72 a0bd 0341 11be c7aa 8dbd
000003a0: 603c dfbd ff2b 973a 05d8 40bd 79f6 68be
000003b0: 7378 93bd 569f 96be 8733 06bd bcec 8fbe
000003c0: fb2f 56be 4f9c ccbd c3bf 5cbe 1bda 6dbe
000003d0: 31b9 7dbe 2f70 10bd 4c73 b8bd 8b3e 0639
000003e0: 6040 31be 0e65 58bd 168f 09be 0711 96bd
000003f0: e07b c4be 1bf0 1fbe 55f7 8bbe 300c 83bd
-0.21070643 -0.1244009 -0.08404966 -0.11338489 -0.23559295 -0.04626623 -0.092123695 -0.15231356
-0.26820943 -0.24870908 -0.0003240994 -0.028486283 -0.41205347 -0.020759923 -0.25569183 -0.09838801
-0.06831071 -0.12168161 -0.03692371 -0.32593563 -0.1560928 -0.16801962 -0.19535059 -0.16534674
-0.089656204 -0.05181528 -0.33434853 -0.17461927 -0.14047743 -0.23655881 -0.02023121 -0.21128473
-0.23776545 0.0053903093 -0.15447651 -0.08712526 -0.026768072 -0.26025712 0.023004217 -0.42688695
-0.08083879 0.037465714 -0.021447336 -0.108663715 -0.40293258 -0.09155858 -0.0020676486 -0.10493388
-0.20269623 -0.34518906 -0.11972329 -0.1733289 0.06006861 -0.049528416 -0.25047517 0.058716293
-0.15106283 -0.24927634 0.005110383 -0.25872332 -0.2302887 -0.23662487 0.18754344 -0.30004176
-0.135175 -0.12923348 -0.15104954 0.08297519 -0.32125315 0.046241775 -0.03161767 -0.11000552
-0.0061043594 -0.2538874 -0.062799394 -0.008336945 0.03193287 -0.37447944 -0.16562065 -0.21640915
-0.06658078 -0.1704988 -0.15043864 -0.19633274 -0.17726526 0.035416424 -0.027369162 -0.050853956
-0.15876728 0.18180896 -0.28049657 -0.09819748 -0.21173207 -0.22390692 -0.25255328 -0.2223664
-0.17989425 -0.16723368 -0.4627731 -0.095703155 -0.12175282 -0.015414456 -0.097501084 -0.32719147
-0.32406217 -0.062865146 -0.22471084 -0.24052086 -0.26443326 -0.09231773 -0.028728003 -0.052277587
0.027441643 0.019507464 -0.42021793 0.015720008 -0.11173585 0.048407562 -0.14417823 -0.087925404
-0.19460508 -0.6002654 -0.22015308 -0.11480441 -0.11732491 -0.25770372 -0.22000726 -0.23996402
-0.0033572095 -0.020947292 -0.25005385 -0.03886868 0.010398722 -0.35359183 -0.11310382 -0.2672806
-0.21434426 -0.18852326 -0.13987146 -0.25136882 0.08339048 -0.017626109 -0.17417262 -0.0919881
-0.080517635 -0.13998328 -0.07964434 -0.1376616 -0.09090787 -0.112006806 -0.21530822 -0.100640975
0.028845314 -0.2252051 -0.19114009 -0.27225167 -0.22311711 -0.15699333 -0.2632745 0.0012203249
-0.037648138 -0.03383472 -0.1096578 -0.12752512 -0.123585574 0.034892056 0.013569271 -0.24263161
-0.08515974 -0.21788247 -0.052922558 -0.12731671 -0.14186358 -0.20582324 -0.25687534 0.059203994
0.07130706 0.002347445 -0.23494379 -0.29072174 -0.107461944 -0.2732727 -0.24793294 -0.37370685
-0.15210734 0.040439628 -0.04981502 -0.2310424 -0.20833154 -0.082290344 -0.1482526 -0.15664867
-0.017306434 -0.046703994 -0.053150814 -0.18500485 -0.18939157 -0.26411414 -0.2685182 -0.10478489
-0.39984828 -0.24373123 -0.21644032 -0.08892621 -0.055838402 -0.22654577 -0.04002128 -0.35712832
0.033853646 -0.008674213 -0.10637637 -0.26348937 -0.30568704 -0.14282145 -0.0010589405 -0.15135142
-0.07142639 -0.15597017 -0.1883933 0.024811428 -0.13740936 -0.14423156 -0.23003511 -0.0066267136
-0.18584429 -0.1744537 -0.31437874 -0.19150718 -0.07320215 -0.078344084 -0.14184956 -0.06917339
-0.109001875 0.0011533498 -0.047081012 -0.22750272 -0.07200708 -0.2941844 -0.032763984 -0.28110301
-0.2091674 -0.09990751 -0.21557526 -0.23227732 -0.24777676 -0.035263237 -0.09006366 0.00012802535
-0.17309713 -0.05283075 -0.13433489 -0.073274665 -0.3837576 -0.15618937 -0.27337137 -0.06398809

bn1.running_mean f4 [400]
00000000: 0c5b 4c3e 14dd 833f 3836 e9bf 7bc0 df3f
00000010: 359f 3dbf ab96 e4bf 4d49 6fbf 260c 033f
00000020: 4a09 f43e b8ba 1c40 2d53 fcbd 1718 3e3e
00000030: ab59 cbbf 3375 ef3d b18b 0bc0 d1e4 3b3f
00000040: bc46 9d3e 5438 e43f d2dd a3be 7936 b23f
00000050: c1da ec3e c57f 833f e6fc e5be d6f7 0a40
00000060: 1c15 03bf 2876 ef3d a61b 3740 ed84 0d3e
00000070: e9d7 b3bd 4801 5c3f 254f 9abf 26b7 b33f
00000080: e3e7 84be 1c0e 5d3b 3376 9f3f fcbf b0bf
00000090: 1e8c 593d e881 21bf 4214 d8bf b125 4fbf
000000a0: 4fa9 dabd f893 45bf 0f84 283f c902 e6be
000000b0: ae98 ad3f a844 12bf 7931 23bf 5712 b23f
000000c0: 3195 a9bf faea 183f 3db8 c03f 9d89 3140
000000d0: f911 2340 410c 99bf 6ec9 f43f 6c7c a6bd
000000e0: 5aab 363e 5e9f 7e3f 7f14 983f 888d 60bf
000000f0: d0c1 a43f eec5 8cbd a2a8 d43f 947d 793f
00000100: 8cb0 0ec0 16a4 3bbf 0857 e73f e459 d93f
00000110: 7357 63bf 30c5 b63d d414 08be 1858 7abf
00000120: ad39 c6be 13d8 60bf 8311 0f40 2a7f cc3d
00000130: d7c8 0e40 5333 8dbe 6b82 37bf fe81 f33e
00000140: 8bcf f13e f476 e43f f5a3 a1bf 4370 c0bf
00000150: 6069 2bc0 6616 b03e 4c91 17bf 677e cbbe
00000160: 49e2 debe 32d2 90be 9668 ac3f 8bff 0b3f
00000170: ad87 2840 e75e af3f 6492 1d3f 1444 a5bf
00000180: 25a7 883f 27bc 70be 88ff 333d 1a4c fb3f
00000190: 5711 273f 2ddf 7e3f c27c 0cbf 76ba 1ebe
000001a0: 367c ed3e db9a 1140 9d8c 1a40 24c3 5dbf
000001b0: 2e76 2440 9b16 db3f 8679 03c0 ac98 763f
000001c0: e7d3 e03f d97b 02bd 42fa 9bbf fa21 8d3f
000001d0: 802c 183e acf4 bebf 57d1 f33e 0b18 a7bf
000001e0: bf24 d5bd 5095 e4be f945 b8bf 2f3b 2340
000001f0: 4aee 813f 9fb3 e3be 754b e1be e735 17c0
00000200: f996 303f cc22 323f 3a55 7c3f 1130 65bd
00000210: 3356 f7bd 5b4d 113f e77a a53e 1b23 48c0
00000220: 09d7 aa3f cf4e 663e 88ed edbe 3d34 863e
00000230: 76aa 063f 0be8 953f 2289 2140 1e25 3540
00000240: 30b2 873e 635b 553f e841 8e3f 3ee7 94bf
00000250: 22b5 2d3f 9855 903f cc05 943e 8326 953e
00000260: 90d7 533f de47 38bf c30a da3f 5780 6c3f
00000270: 8c6e 22bd f5b4 fbbe e4de 1840 e99b 83bf
00000280: 67b9 8cbe d5ee e5be 509a 2dc0 a2b8 883f
00000290: 19a5 a53f 2c50 da3e 7a47 e3be 2787 a93f
000002a0: 3431 22c0 1fe9 443f a152 b93f a025 623f
000002b0: 5c6c 1840 3c47 98bf 0fdb b3bf c608 0c3d
000002c0: 7537 0440 4488 5fbf 72b4 62bf 360d 8d3f
000002d0: 572d e7be bbe1 ca3e f72f 02c0 7087 1bbf
000002e0: 2d6f 19bf 92ed 59bf 3fda b43f 1ca0 27bf
000002f0: a3e2 17c0 8ff1 7abf 4072 f2bc 262c a43f
00000300: fa62 bcbe 4f00 39bf 9076 383e 3205 3f3f
00000310: d6c5 0e3e 5b00 0d40 3ab9 c93e 246f 3f40
00000320: 8216 00bf 6d92 833f e126 293d e367 07bf
00000330: 0351 2d40 b548 fcbf f19c 0cbe 9348 8b3e
00000340: b932 9e3f 8bf7 023f 2b0a 6abf 8888 0e3f
00000350: 727d 6fbe 54ae 1d40 6808 013f ba76 2240
00000360: 7049 5c3f 9ae6 8abe ca4d a43f e058 c53f
00000370: 9b94 d23f 1119 9e3f d7fb 16c0 d836 b83f
00000380: aeb4 09bf b978 163e 96e6 983e f364 b03f
00000390: 6b0e 943f 3a9d 70bf ead8 1c3f 9caf 863e
000003a0: 7d2c 993f 2773 25c0 c42c bd3f 39e6 0d40
000003b0: 8aa6 95bf 4261 be3f efa9 8cbf 0808 283d
000003c0: dc8f 4f3e f81c 36bc 1662 103e 4227 aebf
000003d0: 268c 33bf 9514 0f3c 9b2f 1b3f 094c 0e3f
000003e0: d96b 40c0 14d7 8d3d f44e 4f3f 7534 9b3d
000003f0: e48e 8e3f d75c 463d a571 1cbf 58d5 dfbb
0.19956607 1.0301843 -1.8219671 1.7480615 -0.74071056 -1.785848 -0.93471223 0.5119041
0.47663337 2.4488964 -0.12320552 0.18563877 -1.588674 0.11692276 -2.180401 0.7339602
0.3071803 1.782969 -0.32005173 1.3922874 0.46260646 1.0273367 -0.4491951 2.1713767
-0.51204085 0.116924584 2.8610625 0.13820238 -0.08781416 0.85939455 -1.2055403 1.4040267
-0.25958166 0.0033730334 1.2457947 -1.3808589 0.05311214 -0.63088846 -1.6881182 -0.8091689
-0.10676824 -0.7717891 0.65826505 -0.44924 1.3562219 -0.5713601 -0.63747364 1.3911847
-1.3248655 0.59733546 1.5056225 2.7740242 2.547972 -1.1956865 1.9123971 -0.081292
0.17838803 0.99461925 1.1881255 -0.8771596 1.2871647 -0.068736896 1.6613963 0.9745724
-2.2295256 -0.7329725 1.8073435 1.6980557 -0.8880531 0.08924329 -0.13289195 -0.9779067
-0.38715878 -0.87829703 2.2354438 0.09985192 2.2310083 -0.2757822 -0.7168338 0.47560114
0.47228655 1.7848802 -1.2628161 -1.503426 -2.6783066 0.3439209 -0.5920608 -0.39744875
-0.43532017 -0.28285366 1.3469417 0.546868 2.633281 1.3700837 0.615515 -1.2911401
1.0676008 -0.23509274 0.043944865 1.9632599 0.65260834 0.9955929 -0.54877865 -0.15500817
0.46383828 2.2750766 2.4148324 -0.86625886 2.569713 1.7116274 -2.0542922 0.9632671
1.7564667 -0.03185639 -1.2185748 1.1025994 0.14860725 -1.4918418 0.4762065 -1.3054212
-0.104073994 -0.44645166 -1.4396354 2.5504873 1.0150845 -0.44472978 -0.44002882 -2.362665
0.68980366 0.69584346 0.98567545 -0.055954043 -0.12076988 0.5675866 0.3232033 -3.1271427
1.3346874 0.22491 -0.46470284 0.2621173 0.5260385 1.1711439 2.523995 2.8303905
0.26503134 0.8334257 1.1113863 -1.163307 0.6785451 1.1276121 0.28910673 0.29130945
0.827508 -0.7198466 1.7034534 0.9238333 -0.039656207 -0.49161497 2.3886042 -1.0281955
-0.274852 -0.44908777 -2.7125435 1.0681345 1.2941009 0.4263929 -0.4439047 1.324437
-2.5342531 0.76918215 1.4478341 0.8833866 2.3816137 -1.1896739 -1.4051226 0.034188055
2.0658848 -0.873173 -0.8855659 1.1019657 -0.4515178 0.39625344 -2.0341775 -0.60753536
-0.59935266 -0.8512813 1.4129103 -0.6547868 -2.3732078 -0.9802484 -0.029595494 1.2825973
-0.36794263 -0.72266096 0.18013978 0.746173 0.13942656 2.2031467 0.3939913 2.9911585
-0.50034344 1.0279061 0.041296843 -0.52892894 2.7080696 -1.9709688 -0.13731743 0.27203807
1.2359229 0.5115897 -0.91421765 0.5567708 -0.23387697 2.4637651 0.5040345 2.5384965
0.86049557 -0.2712906 1.2836239 1.5417747 1.6451601 1.23514 -2.359121 1.4391737
-0.5379132 0.1469449 0.29863423 1.3780807 1.15669 -0.9398991 0.61268485 0.26305854
1.1966702 -2.5851533 1.4779286 2.2171767 -1.1691449 1.4873431 -1.098936 0.041023284
0.20269722 -0.011115305 0.14099917 -1.360573 -0.70135725 0.0087329345 0.60619515 0.5558477
-3.0065825 0.069257885 0.8097985 0.07578365 1.1137357 0.048428383 -0.6111091 -0.0068308525

bn1.running_var f4 [400]
00000000: 7b38 aa3f 1f26 1341 77d3 4a3f d872 813f
00000010: c430 2640 6a1f 9540 c8ee 5540 6b82 df3e
00000020: 0732 843f 3055 db3f 5cc8 b73e 93ef 2540
00000030: 2270 ed3f ac76 1e3f 9bbb 1040 5413 6c3e
00000040: a4a6 d83d 7635 d43f 3ef6 0040 e1a5 af3f
00000050: 73f1 5040 eb1a bd3f 2da8 f03f 7329 9a40
00000060: e82e 2740 6a53 cc3f aebe 3740 7b28 6340
00000070: cf40 c93f 3349 e03f fd2b 6e40 3dd7 0d40
00000080: 0ade b13f 8fc4 3940 c5fd 0741 3b40 2040
00000090: 57a5 403e fd02 3740 2c97 1140 e475 bc3f
000000a0: e313 1940 3a87 0840 379e 813f 280f 3140
000000b0: d0e7 8540 73a4 f240 f0d1 0341 b2ac 1840
000000c0: 005c cc3f afd9 f03f 63ab 3340 d4e8 ac40
000000d0: c532 2640 c39c f63f 3dd7 1b40 5b19 c13f
000000e0: c623 7a3e 9e54 5a40 a3d9 d240 37a3 8c3f
000000f0: 8fc6 3640 3279 633f 023e a43f 4846 2240
00000100: 7111 2640 c94a a23f e825 0940 1261 3f3f
00000110: 7ab5 923f 215d 7140 1b57 f540 fc3f cf3f
00000120: 338b b13f 5a43 4c40 82c5 2a40 8281 5340
00000130: c4f0 ed3f 3ca3 d340 fbfa 3c40 462f ff3f
00000140: fcef 4840 37b5 a840 0664 9340 ce45 b03f
00000150: ba74 b73f 0278 8040 9d76 f13f 0d5f 9340
00000160: 0e16 b440 a763 ed40 5cc5 713f 5558 3140
00000170: b9a0 bd40 edd1 5f40 2ca3 0f40 f55b ac3f
00000180: 075e f13e 84e1 9340 0471 c53f f088 3240
00000190: d048 f63f 294a 2040 68d9 3f40 ab1e 8f3e
000001a0: fb3d 0540 717b e73f ac39 7140 548c 963f
000001b0: 39b5 b03f 2713 f03f 2a37 3440 fc3d 8940
000001c0: ea72 4b40 3a9b 913e 03aa 4b3f cdd1 3640
000001d0: abdf e140 66d3 7f40 b2b0 9e3f e177 fd3f
000001e0: ba4c 9940 5b45 bf3f 10f0 f93f f0b3 3f40
000001f0: 9ee8 3340 af4f 6e40 22c1 7e41 ad5f 943f
00000200: f30d 803e 40c3 e13f c2a0 e23f 3de8 7d3e
00000210: 09fb 963e 706c 843f 88c6 bb3f 19e0 e23f
00000220: 70d4 8040 38a0 8d40 6bbf 313f 2a9a 163f
00000230: f9bc 5a3e c3ee a53f 10fd 683f c0f4 4240
00000240: 79f0 7140 d3f1 4440 35d0 ef3e ea2d 3c40
00000250: a0df 2b3e 4c22 933f 1cef 253f 3668 5d40
00000260: 8399 d93f 4e1e 9b3f af51 f83f ee7e ad3f
00000270: 8083 393e 65cf 253f bb05 3a40 6e9b bf3e
00000280: 82d6 1c40 49de 1040 75c4 3640 262b bf3f
00000290: 3291 683f 5b36 4341 f9b7 0a3e 2ad2 f93e
000002a0: c14d 3240 a866 1140 3325 a63f 53a4 db3f
000002b0: 4b45 0740 4737 6a40 3b9e 0240 2a53 2740
000002c0: 2779 933f c97f 6640 2840 203f 0ecb 8540
000002d0: 7719 4440 b4c8 e43f 1e31 0b40 2fd5 3d40
000002e0: 9414 933f 9c3c d840 9d10 fa3f 398c 5b40
000002f0: 6501 da3f 52a5 0640 81ca 4440 b7fb 5841
00000300: 0671 8d40 a215 5140 a747 2d40 17c7 823f
00000310: 0673 b93f ee61 c33f b382 b13f e714 6940
00000320: 5183 6a3f ffa7 2b40 4c5e c43e 0d1f c73f
00000330: 4307 f53f 1bf6 ea40 10a4 2340 8f96 de3e
00000340: 6a9b 833f ea7b 3640 3124 c13f ed19 cc3f
00000350: b153 4f3e 0a45 9641 f3a2 863e 29b9 8e3f
00000360: f2ec c53f d3c7 c43f a50e c13f d66b 6841
00000370: 4594 ce40 36c8 b640 fe2b 613f f3e3 483f
00000380: 064a c93f 2e50 f13f 9d69 913e 2294 b140
00000390: 1e4b e43f b4f4 4a40 aa6e 6e3f 3d68 6a3f
000003a0: 001f 3b40 730c 0841 37a1 0f40 548f 8041
000003b0: 9518 5840 421f ac3f 0ac6 9c3f a18c 913f
000003c0: 0406 0840 c4f8 f53f 7210 3740 67ed 0f40
000003d0: 85d1 b23f ecd8 be40 db95 bc40 919d d340
000003e0: 1c3e ae3f 2d6f 3f41 2d06 0541 38d4 5a40
000003f0: fdc6 653f 84de ef40 03f6 a23f d197 0241
1.3298486 9.196807 0.7922892 1.0113173 2.5967264 4.6600847 3.342699 0.4365419
1.0327767 1.7135372 0.3589505 2.5927474 1.8549845 0.6189983 2.2614505 0.23054248
0.10578659 1.6578815 2.0150294 1.3722497 3.264737 1.477384 1.8801323 4.8175597
2.612238 1.5962956 2.8710132 3.5493457 1.5722903 1.7522339 3.7214348 2.216262
1.3895886 2.902622 8.499455 2.5039203 0.18813072 2.8595574 2.2748518 1.4723477
2.3918388 2.1332536 1.0126408 2.76655 4.1845474 7.5825744 8.238754 2.3855405
1.5965576 1.8816432 2.8073356 5.4034214 2.5968487 1.926659 2.435012 1.5085863
0.24427709 3.4114146 6.589067 1.0987309 2.855869 0.88856804 1.2831423 2.5355396
2.5948145 1.2679073 2.1429386 0.7475749 1.1461632 3.7713091 7.666883 1.6191401
1.3870605 3.1916108 2.668305 3.3047795 1.8589101 6.613676 2.9528186 1.9936302
3.1396475 5.272121 4.60596 1.3771303 1.4332497 4.0146494 1.8864323 4.605353
5.627692 7.4184146 0.9444177 2.7710164 5.9258695 3.4971879 2.2443342 1.3465563
0.4714205 4.621279 1.5425115 2.789608 1.9240971 2.5045264 2.9976444 0.27953085
2.081908 1.8084546 3.769145 1.1761575 1.3805305 1.8755845 2.815867 4.2888165
3.1788888 0.2843874 0.7955629 2.8565552 7.058553 3.9972777 1.2397673 1.9802209
4.790616 1.4943041 1.9526386 2.9953575 2.8110728 3.7236135 15.922152 1.1591698
0.25010642 1.763771 1.7705309 0.24795623 0.294884 1.0345592 1.4669962 1.7724639
4.0259323 4.425808 0.69432706 0.58828986 0.2136115 1.2963489 0.9101114 3.0461884
3.7803023 3.0772598 0.46838537 2.9403024 0.16784525 1.1494842 0.64817977 3.4594855
1.6999973 1.2118623 1.9399928 1.3554361 0.1811657 0.64769584 2.9065998 0.3742327
2.4505925 2.2635672 2.8557408 1.4935043 0.9084655 12.20077 0.13546742 0.48793155
2.7859957 2.2718906 1.2980102 1.7159523 2.1136043 3.6596239 2.0409076 2.614451
1.1521348 3.6015494 0.62597895 4.181037 3.0640543 1.787375 2.1748729 2.9661367
1.1490655 6.7573986 1.953632 3.4304335 1.7031676 2.1038404 3.0748599 13.561454
4.420047 3.2669454 2.7074983 1.0217007 1.4488227 1.5264261 1.3868011 3.6419008
0.9160662 2.6821287 0.38353193 1.5556351 1.9142841 7.342542 2.5568886 0.43474242
1.0281804 2.851313 1.508917 1.5945412 0.2024677 18.78371 0.26296195 1.1150256
1.5462935 1.5373482 1.5082594 14.526327 6.4555993 5.71194 0.8795775 0.7847282
1.5725715 1.8852594 0.2840089 5.5493326 1.7835424 3.1711855 0.9313761 0.91565305
2.923767 8.503039 2.2442148 16.069984 3.3765004 1.3447039 1.2247937 1.1371042
2.1253672 1.9216542 2.8603787 2.248865 1.397019 5.9639797 5.893293 6.612984
1.3612704 11.964643 8.314008 3.4192028 0.8975676 7.4959126 1.2731327 8.162065

fc2.weight f4 [300, 400]
00000000: 1b9f 87bb d480 263d 07bb 7cbc 12ca dc3d
00000010: f290 633d 94a5 f2bb 1694 8d3d 5d0b dd3b
00000020: b919 ddbb 3d76 9bbc efec 2a3d d2d5 ca3c
00000030: 3c28 233c b6f5 b93d 99e8 b73d 63e4 13bd
00000040: 333f e03c 9a91 723d 9e04 643d f29a 59bc
00000050: a306 60bd 2ca2 063d 65d8 ce3d 1cf3 1cbd
00000060: b363 bd3d 5967 12bd 974b 153e 318d d53d
00000070: b2df d6bc bf3f 76bc e7ee 12bc 61db ea3c
00000080: 6f87 9a3d 60d8 043d e8af b33b aaf3 47bc
00000090: e6fe 3bbd fe10 093e 9754 693d 3a63 72ba
000000a0: cb9e 813d d4c5 78bc 01a0 963d f011 66bc
000000b0: e166 1cbd 58fe a73c baf9 bfbc 5872 263b
000000c0: 538a 88bb 79cc 04be 0298 813d e91e 4ebd
000000d0: 1a8f 703c 8110 9d3d 3906 043c 07f2 d43b
000000e0: f67f 053d 1a54 77bd 263d b8bc 0fe1 133d
000000f0: 101c 5abc a6ec 653d 8cd7 82bd 0c17 57bc
00000100: 61bf cc3d 760b 413d fe11 fe3c 4a5a 80bd
00000110: 3e9c ed3b ac3a 20bd a481 a33c ee9e 11bd
00000120: 9612 5bbd 0739 373d b91b 47bc 47fb f6bc
00000130: 64dc c4bb 28f9 283d d463 5c3d e0c5 223e
00000140: 8ac0 a23d 0dfb 4fbc 9ef9 9b3d c014 893d
00000150: 6fb9 ee3c 44f9 463d 6699 7a3c c7d8 e7bb
00000160: 8dab 513d 0ee9 abbc 4c1a 2ebc 2b09 6bbc
00000170: ff32 a63d 29e7 b63c d4ab 0cbe ab88 403d
00000180: 06ce a8bb 26bd 87bd 0f81 1bbd 8b78 bdbc
00000190: 383d 3b3c 53bb 76bd 5033 323d 942d c73c
000001a0: 0868 6a3b 5ba3 5f3c 7c37 8f3c d6ad 2d3d
000001b0: 17ac e33d 94a8 f4bb fb99 5e3d 52b5 a43d
000001c0: a6ee 903c ef58 25bb 7d81 babc 7fef 683d
000001d0: 5914 8b3d c098 f53c aa07 ef3d 95e4 b7bb
000001e0: b007 10bc c881 723d 8fa5 d03c 885e c53d
000001f0: a0d9 a9bc 9f64 cd3d 49c3 193d 78eb 893c
00000200: 70eb f93a a674 163d 36a5 eabc d737 ab3c
00000210: 88a3 0c3c 8a56 c43c 165a 973d 4187 c03d
00000220: 3a26 74bc db78 553d 7233 e33c 825b 253d
00000230: 602f 13be 5c3f 893d c44e 1f3d 9a3c 9abc
00000240: 3440 c03d bd99 c4bc 2db1 9d3c 588b 1e3d
00000250: 4c3b 273d 7e4f aa3d 230f e53c ee27 7f3d
00000260: ea5d ae3d 96fd 133e 1152 a13d c216 8b3d
00000270: 6635 923d 8976 133e b0c6 86bc cccd b6bc
00000280: e3df 01bd eabf ddbb cf7e a33d fafd 0e3d
00000290: 89dc 743a b697 77ba 3f68 6f3c 6469 0e3d
000002a0: 4f8f d03c c9f2 cabc 058e 59bc 5263 433a
000002b0: 4386 8fbc ac31 a6bc 5bd7 393d 0313 4b3d
000002c0: 5f49 c2bd 6efb d43b 6a4f 9b3c f573 233d
000002d0: d75b 2d3d 40c1 b83d a289 d3bd 7fa7 0e3d
000002e0: 1598 4bbd 84af ba3c 710b 01bd 9d06 a43c
000002f0: 043f 8bbc 5494 923d 40a5 9d3c 91d5 b6bc
00000300: 6262 553d 4adf 973d 25d5 7d3d ba48 43bc
00000310: 5f55 9f3c c573 1d3d 2b7b 49bd 2d74 e83d
00000320: b668 cc3d 000b 0bbd 39bf 09bd 1789 71bd
00000330: 0ceb 483c 9f12 8fbc 2728 783c 9ce7 56bd
00000340: 7608 16bd 0161 11bd 1760 923d 5866 42bd
00000350: 67f6 bd3c d136 d3bc 3160 493c f747 f5bd
00000360: 58eb b0bc 1d3f 78bd 9212 91ba 06af 7e3b
00000370: a8e2 34bd 076f 8e3d 82de d9bc e95d 14bd
00000380: aa5b c5bd a763 c73c cbb6 c93d a81f 4a3d
00000390: 951f f43b 4551 453d 4a74 36bd ac33 753d
000003a0: e20b f3bc 40fb 28bd 7431 e23b 8c57 ab3a
000003b0: 5275 3c3d 710a 08bc 772f 553d 6576 2c3d
000003c0: 2715 873d cc82 003c 9a9e 8a3d 6c36 443d
000003d0: 1c24 da3c f17a 473c 848d 663d e258 cfbc
000003e0: 3b75 9e3d f972 bb3d a9cc 203c 08ae bfbb
000003f0: 5fe7 3b3d e0f4 a23c 6b79 b23c 0671 eb3c
-0.00413884 0.040650204 -0.01542545 0.10780729 0.055558152 -0.0074049924 0.06913011 0.0067457394
-0.006747451 -0.018977279 0.041729864 0.02476016 0.009958323 0.09080069 0.08979911 -0.03610648
0.027373886 0.059220888 0.055668466 -0.013281571 -0.05469383 0.032869503 0.10099868 -0.038317785
0.09247532 -0.03574309 0.14579616 0.10427321 -0.026229713 -0.015029847 -0.008968092 0.028669061
0.07545363 0.032432914 0.005483616 -0.01220409 -0.045897387 0.13385388 0.056965437 -0.00092463533
0.063291155 -0.015183885 0.07354737 -0.014042363 -0.03818405 0.020507023 -0.023434509 0.0025397744
-0.00416688 -0.12968625 0.06327821 -0.050322447 0.014682556 0.076691635 0.008058124 0.0064985785
0.032592736 -0.06038294 -0.022490095 0.036103304 -0.013312355 0.05613389 -0.063887686 -0.013128053
0.0999744 0.04713007 0.031014439 -0.06267221 0.0072512915 -0.039118454 0.019959278 -0.035551958
-0.05348452 0.04473212 -0.012152606 -0.030149115 -0.006007718 0.04125324 0.05380614 0.15895796
0.0794688 -0.0126941325 0.0761597 0.06693411 0.029141156 0.048577562 0.015295362 -0.0070754024
0.051188994 -0.020985153 -0.010626387 -0.0143454475 0.081151955 0.022327023 -0.13737422 0.047005337
-0.005151513 -0.06627874 -0.037964877 -0.023128768 0.01142817 -0.06023724 0.043505967 0.024313726
0.0035767574 0.013649787 0.017482512 0.04240211 0.11116808 -0.007466385 0.054346066 0.080423966
0.017691921 -0.002523001 -0.022766823 0.056869026 0.067909904 0.029980063 0.11671384 -0.005611966
-0.008790895 0.0592058 0.02546957 0.09637171 -0.020733654 0.100289576 0.037539754 0.016835913
0.0019067358 0.03673234 -0.028643232 0.02090065 0.008583911 0.023967046 0.073902294 0.09400798
-0.014901692 0.05211721 0.027734492 0.04037047 -0.14373541 0.06701538 0.038893476 -0.018827725
0.09387246 -0.02399909 0.019249523 0.038707107 0.040828034 0.08315943 0.02796132 0.06229394
0.085140064 0.14452204 0.07876981 0.0679145 0.07139091 0.14400686 -0.016452163 -0.022314928
-0.031707656 -0.0067672627 0.07983171 0.03491018 0.00093407236 -0.0009444909 0.014612257 0.034768477
0.02545896 -0.024773972 -0.013278489 0.00074534595 -0.017520076 -0.020287357 0.045371395 0.049578678
-0.09486651 0.0064996993 0.018958766 0.039905507 0.042323913 0.090212345 -0.10328986 0.034827705
-0.049705584 0.02278877 -0.031505052 0.020022685 -0.016997822 0.071571976 0.019243836 -0.022318633
0.05209578 0.07415636 0.06197085 -0.011919195 0.019449888 0.038440485 -0.049189728 0.11350284
0.099809095 -0.033946037 -0.03362963 -0.05896863 0.012263071 -0.017464934 0.015146292 -0.052466974
-0.036629163 -0.0354929 0.07147234 -0.047460884 0.023188783 -0.025782974 0.012291 -0.11976617
-0.021596596 -0.060607065 -0.0011068156 0.0038861646 -0.04416147 0.069547705 -0.026595358 -0.036222372
-0.09636624 0.02433951 0.09849318 0.049346596 0.007450054 0.048173208 -0.044544496 0.05986373
-0.029668752 -0.041255236 0.006902868 0.0013072356 0.046010323 -0.008303271 0.05204722 0.042105097
0.06595831 0.007843684 0.06768532 0.047903463 0.026628546 0.012175308 0.056287304 -0.025310937
0.07737204 0.09152789 0.00981442 -0.0058496036 0.04587495 0.019892156 0.021786412 0.028740417

fc2.bias f4 [300]
00000000: d343 27bd 054a 153d d1da 14bd 4f13 a4bd
00000010: 272f 9c3d 39fe 45bd 540c 83bd 2281 493d
00000020: 80fa f73c d5f8 3fbd 66fa 13bd ac29 993c
00000030: 576a d63c 1430 25ba 7792 093a 5c08 65bc
00000040: f470 0a3d 3b27 983d ae48 7a3d db8c 21bd
00000050: 93b8 3c3d 40c4 50bd 8938 78bc 73da 1f3c
00000060: 60be 793c d4a4 3abd 32c3 3c3d f28c 5a3d
00000070: 5162 863d 7d41 4a3d f048 acbc f4e9 713c
00000080: 1df9 b3bb 2392 973b 022f 9a39 c654 e63c
00000090: dce9 e03c 483d 9d3b bf31 28bd 3b8c c4bc
000000a0: 08e1 20bd c889 5ebd 3bc1 57bd 9032 803d
000000b0: 5daa c4ba 4e3e 24bc 830f 47bd d8cb 693a
000000c0: 9945 eabb 3e6d 8d3d e7d9 793d 09e0 f7bc
000000d0: 1c9b 563d 005d f0bb d7ea 8a3c 2dc5 e6bc
000000e0: ff33 34bd f181 643b a4a3 abbb 464a 24bd
000000f0: 994e 8bbd 7cc8 a4bc 5087 52bd aa93 96bb
00000100: e09b 34bd 368c 493d 40c9 17bd 6c65 83bd
00000110: 35d5 a7bc deff 0bbd 31ef 2f3d ef98 edbc
00000120: bcaf 333d fbc9 5a3d 920a a13c 5181 493d
00000130: 0678 82bd b951 b63d c6a2 4dbd ed1b b4bd
00000140: 0118 edbc b260 f73c 7374 4d3d 0cfb c33c
00000150: 1ba0 05bb 6075 1c3d 8548 a83b 0fa3 9e3c
00000160: b498 483d 0bdd d73c 615b 05bc 0769 0ebb
00000170: 2509 54bb 0c96 a23d 2fb1 70bd 92a0 9dbc
00000180: d8c8 2b3d 180d 5cbb dfc0 b2bc 2fd1 123d
00000190: c173 c0bc 00b6 113c 23d5 cabc d250 193d
000001a0: 8f51 babb 39ea 38bc 4751 993c 8bcd f13c
000001b0: aa9d a4bc 81f6 2d3c 446e 373c 4652 90bd
000001c0: d109 b03d 7b25 133c 6a48 383a 59f7 953c
000001d0: b98d 73bd e3cb 65bd 7f97 c8bc 7db2 f7bb
000001e0: 2da2 a9bb c935 0f3c 6743 98bc 3f3c f9bc
000001f0: 6d30 cbbc f959 48bd 52b1 c43c aa37 c03c
00000200: dd37 f0bc b20d 9abc 298f e53c 6c4f a53d
00000210: b1c9 fcbc 0b66 003c 37d1 03bd e148 8d3c
00000220: ba1e 9c3c f7e9 c2bd e182 d63a 662e 163d
00000230: 00bb 3dbd 122b 1f3d 8641 dcba 22b0 d9bc
00000240: 2ded 273d a601 01bd f858 303c c091 1bbd
00000250: 0af7 1ebd 783b 553d ad10 17bd bbf4 453c
00000260: 8738 21bd edc6 a3bc 91fe dc3a c5a0 c4bc
00000270: a417 c4bc cfc7 703d 0be3 0ebc 2cda 8bbd
00000280: c472 cfbb d703 6e3c 5e68 33bd 7d93 ecbb
00000290: ee3f d3bb 437e 283d 8956 36bd f1b9 2abd
000002a0: 8bdd d43c ddea 8a3c ee19 13bb b4f0 c63b
000002b0: 15b7 a73c 4da5 07bd 6baa 1e3d 1a83 fdbc
000002c0: b3bd 7c3d 071d 55bc 69c9 1e3d 3945 2c3d
000002d0: b5de b8bc a86f 603c 5978 57bc 8ada 3b3d
000002e0: 0e32 073a f907 4b3c 0130 0abd 3e59 08bd
000002f0: 031d 9c3d e05e 463d 2eb6 403c 4187 8f3c
00000300: fc30 5ebc ec31 c73b 96c2 723c 4bd0 9abb
00000310: 4540 9239 b432 abbb e1f1 d43b b26b 2ebc
00000320: 633e f4bc 316a 26bd ba16 73bc f87b 9b3b
00000330: 6815 343d 90a1 65bd 104d a1bc bb22 493d
00000340: 1192 92ba 7da5 22bd 640b bf3d 4180 cabc
00000350: 669f 29bd 45a3 c63c 7d15 98bc 2c48 053d
00000360: 0e59 a9bc f06d b9bc 22ca 9b3c 2d6b b2bc
00000370: 2eac 803b 2fce b93c 2888 2e3d ffa2 253d
00000380: fe8b ae3c 4800 ec3b fe48 463d 3929 e5bb
00000390: cc9d 1cbd a6dd 33bc 6c39 443d fb9c 37bd
000003a0: 15bf 863d dbae 14bd 56a5 6bbd 6ea3 31bd
000003b0: ea42 c63c 0b1f 143d e87f c1bb 4a21 ed3b
000003c0: 2ac7 e8bc e910 dfbc f666 743d 0cde 5bbc
000003d0: 4117 0ebd 164c d13c 9b76 a1bc 9cbd 5f3b
000003e0: a53f 863c 7673 dd3c fb3e 19bc aaa3 e13a
000003f0: 3168 87bb ad58 fd3c 5927 db3c 0f6d bbba
-0.040836167 0.036447544 -0.036341492 -0.08011495 0.07626181 -0.04833815 -0.06398836 0.049195416
0.030270815 -0.046868164 -0.03612747 0.018696629 0.026173754 -0.00063014147 0.000524796 -0.013979044
0.033799127 0.074293576 0.06110447 -0.03944097 0.04607446 -0.05096841 -0.015150198 0.009756672
0.015243143 -0.04556735 0.04608459 0.053357072 0.06561721 0.04937886 -0.021030873 0.014765251
-0.005492343 0.004625575 0.00029408192 0.028116595 0.027455263 0.004798565 -0.041063067 -0.023992648
-0.039277107 -0.054330617 -0.052674513 0.06259644 -0.0015004385 -0.01002462 -0.048598778 0.000891862
-0.00714941 0.06905602 0.060998823 -0.030258195 0.052394018 -0.007335305 0.016957683 -0.028170193
-0.0439949 0.003486749 -0.0052380133 -0.040109895 -0.06802101 -0.02011513 -0.051398575 -0.0045952396
-0.044093966 0.04920598 -0.03705716 -0.06415829 -0.020487407 -0.03417956 0.04295272 -0.029003588
0.043868765 0.05341528 0.01965836 0.04919559 -0.06370549 0.08902306 -0.05020406 -0.08794389
-0.02894211 0.030197475 0.050159883 0.02392342 -0.002038962 0.038197875 0.005135598 0.019364862
0.048973754 0.026350519 -0.008139462 -0.0021730082 -0.0032354083 0.079387754 -0.058762725 -0.019241605
0.041939586 -0.003357714 -0.021820484 0.035844024 -0.023492696 0.00889349 -0.024759835 0.037430592
-0.005685992 -0.011286312 0.018715514 0.029516956 -0.020094711 0.010617853 0.011195723 -0.070469424
0.08595622 0.008981104 0.00070298335 0.018306421 -0.05946133 -0.056102645 -0.024486301 -0.0075591193
-0.0051768036 0.008740851 -0.018586827 -0.030424235 -0.024803365 -0.04891393 0.024010334 0.023464043
-0.029323513 -0.018805359 0.028022366 0.08071789 -0.030857893 0.007836829 -0.032181945 0.017246665
0.01905762 -0.095172815 0.0016365909 0.036665343 -0.046320915 0.038859434 -0.0016804195 -0.026573244
0.040997673 -0.031495713 0.010763399 -0.037980795 -0.038809814 0.052058667 -0.036881138 0.012082274
-0.03936055 -0.019992316 0.0016860535 -0.024002442 -0.023937054 0.058784302 -0.008721123 -0.06828722
-0.00633082 0.014527283 -0.043800704 -0.0072197304 -0.00644683 0.041136038 -0.04451612 -0.041681234
0.025984546 0.016957695 -0.0022445875 0.0060711745 0.020473043 -0.033116627 0.038736742 -0.030946303
0.06170435 -0.013007409 0.0387663 0.042058203 -0.022567132 0.013698496 -0.013151252 0.045862712
0.00051573 0.012392038 -0.033737186 -0.033288233 0.07622721 0.048430324 0.011762185 0.017520549
-0.0135614835 0.006078949 0.014816901 -0.0047245375 0.00027895175 -0.00522455 0.006498561 -0.010645794
-0.029814905 -0.040628616 -0.014836961 0.004745003 0.043965727 -0.05606228 -0.019690067 0.049105387
-0.0011182447 -0.039708603 0.093283445 -0.02471936 -0.04141178 0.024247775 -0.018564934 0.03253953
-0.020672347 -0.02263543 0.019017283 -0.021779621 0.0039267754 0.022681324 0.042610317 0.04043865
0.021306988 0.007202182 0.048409455 -0.0069934395 -0.038236424 -0.010978138 0.047906324 -0.044827443
0.06579415 -0.036299568 -0.057530724 -0.04336875 0.024201829 0.036162417 -0.00590514 0.0072366344
-0.028415281 -0.027229743 0.059668504 -0.013419639 -0.034690145 0.025548976 -0.019709876 0.0034140116
0.01638777 0.027032595 -0.009353395 0.0017214913 -0.0041322936 0.030926073 0.02675216 -0.001429947
